neyronki/edlenko.pt (torch, 9697 bytes, 4 tensors)

weight f4 [84, 14]
-0.20972537 -0.629628 0.57888824 -1.533218 -0.62696916 1.288557 0.056805056 -0.16341436
-0.29996634 0.10805422 -0.064179026 -0.14371873 0.07573975 0.1770117 0.7533871 -1.2109269
2.0695958 0.47746822 -0.39509448 -0.744477 -0.069038525 0.06569184 0.08407413 0.1943613
0.10828157 0.107600406 -0.21313679 0.21857505 -0.100199014 -0.49124834 1.6123036 -0.43773356
1.6965098 -1.6757795 0.1957612 -0.11216831 0.012627541 0.05311916 -0.11550964 -0.047050767
0.03402055 0.009285928 -2.0585465 1.241994 -1.1076704 -0.33553493 1.3688725 -0.05000254
-0.07767837 0.11221149 0.12170446 -0.026529154 0.04534879 0.06642665 0.12502316 0.09811841
0.16869803 0.2820997 0.12063214 0.14320518 0.40501937 0.0058391136 -0.31100154 -0.087871104
0.19794893 0.11104588 -0.022696843 -0.05009392 0.29586032 0.10638463 0.59539515 -2.0425599
-1.6026899 0.6119329 1.292102 0.2106452 -0.036813017 0.16550598 0.080676205 0.07139554
0.031164436 0.121296614 -0.024830403 -0.23086251 1.8475131 -0.7208021 -0.7593696 -1.5474702
-0.7405641 0.8925 0.108621866 0.023186898 0.14754665 -0.09118968 -0.24643627 0.114348285
0.12783591 0.18884183 -0.60157555 0.9401927 -1.2049745 -0.2794273 -0.6365961 0.42712805
0.1813983 -0.19658259 0.05739862 -0.12721029 -0.29281685 0.0335317 -0.08917146 0.07273165
0.30928117 0.04235283 -0.2995803 -0.5966521 0.06384553 -0.6435962 -0.14226532 -0.15192115
0.2045064 0.10664122 0.039489154 0.036465634 -0.5145737 -0.03385967 -0.53093773 0.28229046
-1.3443878 0.97593755 -1.1362382 1.458729 -0.038599722 0.069701776 0.15271012 0.1916436
0.12127803 0.013801968 0.055293456 0.08641941 -0.3107184 0.27540416 0.010235444 -0.16012165
-0.25415584 -0.09655805 -0.4484504 -0.2997974 -0.17979841 0.00032508705 0.062375534 -0.42447013
-0.19892998 0.14210257 0.8893456 0.8266457 1.2198629 -0.5362451 -1.6814822 -0.62928313
0.06685681 -0.053677734 -0.0010313655 0.12856129 -0.042536937 0.017137054 0.13399422 0.049646396
0.41042954 -0.2209535 -1.8129605 1.5327804 -0.30785334 0.39430982 0.06304756 -0.056559328
-0.008281966 0.08161026 0.08020191 -0.020125365 -0.12441973 -0.17403069 0.87166864 -1.4570941
1.5727458 -0.69239897 -1.1633412 0.85341173 0.12426809 -0.024010861 0.0905986 -0.07689882
0.09028105 0.033261493 0.23912422 -0.097885124 1.6569332 -0.3163591 -0.7487217 -1.2657667
1.3559823 -0.6638871 -0.028687108 0.14774372 0.06463221 -0.02005733 -0.015543374 0.20424922
0.10851319 0.0880393 0.13520955 0.3704768 -0.12656492 0.08703795 -0.10078338 -0.19022387
0.071276635 -0.23745053 0.17997769 -0.13513412 0.07644978 0.01439717 0.08761169 -0.009899994
-1.0197761 -1.6932745 -0.14236917 1.8995804 -0.6806986 0.51199347 -0.08253296 0.18881027
0.053938925 0.05798955 0.13074094 0.013336475 -0.11858817 0.11638246 -0.27030766 -0.13713835
-0.8646245 -0.3811833 1.3297746 0.2867255 0.18686782 -0.23244436 -0.15053873 -0.1381423
0.02028518 0.03717476 -0.09832805 0.1819026 -0.43282232 0.14494248 0.27816764 -0.12526228
00000000: 3fc2 56be 4d2f 21bf 0532 143f 7d40 c4bf
00000010: 0d81 20bf 70ef a43f 6bac 683d 1856 27be
00000020: 3095 99be 884b dd3d 4b70 83bd 012b 13be
00000030: 711d 9b3d 8e42 353e fadd 403f a7ff 9abf
00000040: 4274 0440 b776 f43e d349 cabe 0b96 3ebf
00000050: 1264 8dbd 7289 863d 0f2f ac3d a606 473e
00000060: bac2 dd3d 9a5d dc3d 8840 5abe 23d2 5f3e
00000070: 2435 cdbd e784 fbbe f75f ce3f 9d1e e0be
00000080: 3c27 d93f f17f d6bf a075 483e 80b8 e5bd
00000090: bfe3 4e3c 7a93 593d 5190 ecbd 4eb8 40bd
000000a0: 2259 0b3d 0124 183c 3abf 03c0 a9f9 9e3f
000000b0: 25c8 8dbf 3ccb abbe 3737 af3f 77cf 4cbd
000000c0: d615 9fbd 23cf e53d 3040 f93d ab53 d9bc
000000d0: a7bf 393d b20a 883d 1206 003e 4ef2 c83d
000000e0: 2dbf 2c3e 5f6f 903e fc0d f73d 61a4 123e
000000f0: b35e cf3e 0956 bf3b 983b 9fbe c4f5 b3bd
00000100: 20b3 4a3e 066c e33d bbee b9bc 482f 4dbd
00000110: 017b 973e 2fe0 d93d d16b 183f 4db9 02c0
00000120: f124 cdbf a2a7 1c3f 9963 a53f 60b3 573e
00000130: 3fc9 16bd 667a 293e 9139 a53d d337 923d
00000140: 8f4c ff3c 5c6a f83d 2169 cbbc 3967 6cbe
00000150: 4f7b ec3f 7d86 38bf 0c66 42bf 8113 c6bf
00000160: 9c95 3dbf e17a 643f 2475 de3d 73f2 bd3c
00000170: 7816 173e a8c1 babd ca59 7cbe 6f2f ea3d
00000180: 6be7 023e c15f 413e db00 1abf 78b0 703f
00000190: 9b3c 9abf 1811 8fbe f6f7 22bf 87b0 da3e
000001a0: 7ac0 393e f24c 49be d11a 6b3d 6a43 02be
000001b0: 17ec 95be 8958 093d 879f b6bd 55f4 943d
000001c0: 1a5a 9e3e 297a 2d3d 9762 99be 31be 18bf
000001d0: 72c1 823d b8c2 24bf 00ae 11be 3891 1bbe
000001e0: 206a 513e b666 da3d 61bf 213d fd5c 153d
000001f0: 1abb 03bf 70b0 0abd 89eb 07bf 6088 903e
00000200: e614 acbf 0bd7 793f 4170 91bf a2b7 ba3f
00000210: be1a 1ebd cebf 8e3d 0b60 1c3e 383e 443e
00000220: 9e60 f83d a621 623c 647b 623d a9fc b03d
00000230: 7b16 9fbe c601 8d3e 90b2 273c eef6 23be
00000240: b720 82be 3ac0 c5bd 4a9b e5be 0b7f 99be
00000250: 131d 38be 7270 aa39 7d7d 7f3d 2654 d9be
00000260: 4db4 4bbe 5683 113e 27ac 633f 0d9f 533f
00000270: 7824 9c3f 5c47 09bf cf3a d7bf b318 21bf
00000280: 39ec 883d 2fdd 5bbd e22e 87ba 92a5 033e
00000290: 363b 2ebd 0263 8c3c c835 093e 055a 4b3d
000002a0: d223 d23e a241 62be 170f e8bf 2632 c43f
000002b0: f49e 9dbe fae2 c93e 141f 813d c1aa 67bd
000002c0: 15b1 07bc 4823 a73d e640 a43d f3dd a4bc
000002d0: c5cf febd 1a35 32be ad25 5f3f 0f82 babf
000002e0: bc4f c93f 0f41 31bf 5de8 94bf 3179 5a3f
000002f0: 4580 fe3d 6db2 c4bc c28b b93d 217d 9dbd
00000300: 45e5 b83d 343d 083d fbdc 743e ff77 c8bd
00000310: 6316 d43f d2f9 a1be 3aac 3fbf a504 a2bf
00000320: d490 ad3f 81f4 29bf 3a01 ebbc 214a 173e
00000330: e45d 843d 454f a4bc a3a9 7ebc b526 513e
00000340: 2a3c de3d f34d b43d 5f74 0a3e 23af bd3e
00000350: 3c9a 01be f440 b23d 8467 cebd 0cca 42be
00000360: 7cf9 913d 3b26 73be 124c 383e 9960 0abe
00000370: b491 9c3d 1ce2 6b3c c26d b33d 9633 22bc
00000380: 0688 82bf 38bd d8bf 39c9 11be 7325 f33f
00000390: 4342 2ebf 0112 033f 0a07 a9bd 7b57 413e
000003a0: 10ef 5c3d 7386 6d3d f4e0 053e 3b81 5a3c
000003b0: 5bde f2bd ed59 ee3d c465 8abe ff6d 0cbe
000003c0: 0858 5dbf 752a c3be 0e36 aa3f afcd 923e
000003d0: 475a 3f3e e505 6ebe d326 1abe 2d75 0dbe
000003e0: 1b2d a63c 9044 183d 3760 c9bd ad44 3a3e
000003f0: e39a ddbe cd6b 143e fd6b 8e3e c144 00be

bias f4 [84]
-0.41975805 -0.06825588 0.26635638 -0.19083162 0.11936283 -0.19235627 -0.047704495 -0.22835648
-0.21667331 -0.19618452 -0.12373259 -0.08366782 -0.34874195 0.23060624 -0.14914183 -0.016006624
0.012612399 -0.10025947 -0.1806798 0.215027 -0.26100123 -0.31078038 -0.021351969 0.21906905
-0.08268387 0.056113705 -0.2398296 -0.13660187 -0.09102505 -0.095385335 -0.43690157 0.075850144
-0.036702245 -0.24573962 0.15308374 -0.07264563 0.14873461 -0.035125695 -0.05983695 -0.21958813
0.2209444 0.17722015 -0.30629617 -0.19071843 -0.063900694 0.12678371 0.2614241 -0.034602992
-0.14315692 -0.016896749 0.066872895 0.17023137 0.113732725 0.12521128 0.2676183 0.12815529
0.09945694 0.21739508 -0.21858306 0.20582888 0.1772435 -0.098922506 -0.05222502 -0.13968973
0.14443691 0.34664264 0.14140151 -0.2395257 0.0961614 -0.09265437 -0.1763083 -0.17489395
0.26765642 -0.025217121 -0.10816411 0.10837216 -0.1857256 -0.004915197 0.21208125 0.36812985
0.16120344 -0.058893133 0.051021982 0.0643662
00000000: 87ea d6be bdc9 8bbd dd5f 883e 5d69 43be
00000010: 8074 f43d 0bf9 44be ca65 43bd 48d6 69be
00000020: 9cdf 5dbe 98e4 48be 8367 fdbd 095a abbd
00000030: 4e8e b2be 0b24 6c3e a3b8 18be 5320 83bc
00000040: 3ca4 4e3c d654 cdbd 2004 39be 0a30 5c3e
00000050: f4a1 85be 9b1e 9fbe 53ea aebc a353 603e
00000060: 2956 a9bd 7cd7 653d e495 75be 5ce1 0bbe
00000070: 576b babd 6359 c3bd 90b1 dfbe 5257 9b3d
00000080: 1855 16bd 2ba3 7bbe fcc1 1c3e 3bc7 94bd
00000090: e34d 183e f6df 0fbd 9717 75bd b6db 60be
000000a0: 403f 623e 3379 353e dad2 9cbe b14b 43be
000000b0: 5ede 82bd 97d3 013e 61d9 853e debb 0dbd
000000c0: ba97 12be 0d6b 8abc a8f4 883d 2251 2e3e
000000d0: b4ec e83d 6337 003e 4405 893e 243b 033e
000000e0: 15b0 cb3d d19c 5e3e 3dd4 5fbe cec4 523e
000000f0: 527f 353e e297 cabd e7e9 55bd d30a 0fbe
00000100: 45e7 133e 257b b13e 8fcb 103e 3a46 75be
00000110: 45f0 c43d 93c1 bdbd 2a8a 34be 6617 33be
00000120: 430a 893e 2394 cebc 2585 ddbd 39f2 dd3d
00000130: da2e 3ebe a90f a1bb d42b 593e 847b bc3e
00000140: 8412 253e ed39 71bd 6dfc 503d 6dd2 833d

weight f4 [6, 84]
0.2869232 0.23347579 0.07289769 -0.45579186 -0.28886294 0.2588006 0.41702443 0.06927874
0.09597417 -0.060157053 -0.17231058 0.23922017 0.18063562 0.3448426 0.5001604 -0.17703153
-0.1724279 0.03974911 -0.16565402 0.3660747 0.054409433 0.14928287 0.1065615 -0.2485393
0.014861004 -0.0057535763 0.0655246 0.4862157 -0.08850827 -0.3315011 -0.3404235 0.37620467
-0.24419986 0.17348078 -0.15982866 -0.25543708 0.31160268 0.14460242 0.33064336 -0.02399791
0.57601076 0.15651016 0.4264051 0.549224 0.08545183 0.07696188 -0.3321409 0.08516074
0.17282234 -0.44379216 -0.23073691 -0.0024041845 0.23960625 0.10135349 0.59383523 0.015178533
-0.08763829 -0.5960376 -0.2622692 -0.05669412 0.22816277 -0.12133136 0.062281903 -0.022664677
0.1168249 -0.5537151 0.2512879 -0.21494699 -0.33696228 0.04440545 0.5773874 -0.3011444
-0.28786197 -0.027193781 -0.35876963 -0.16728677 0.3423627 0.102814406 -0.39188728 0.6246383
-0.43998668 0.070003144 0.22120327 0.1631145 -0.1472633 -0.18249114 -0.03870775 0.4504065
-0.1698149 -0.46954942 -0.041252777 0.17776246 0.101068914 0.011024683 0.29272413 0.26976702
0.05832704 -0.17664385 -0.030792508 0.257524 -0.31082118 0.06342218 0.092639565 -0.27324715
-0.02024162 0.052056216 0.06769504 0.025146173 0.93482673 0.2130229 0.18385917 0.33636123
0.29606095 -0.08861326 0.0066477098 -0.43396503 0.34711185 -0.17424138 -0.06318173 -0.12840307
0.16391733 0.13065302 0.10148595 0.1023235 -0.060625568 0.2384534 0.036404066 0.08098266
-0.0013557768 0.032861926 0.22702028 0.09332817 0.36883613 0.46505123 0.2226261 -0.04785944
-0.04237993 -0.07233395 0.1794841 -0.012662776 0.07963967 -0.57623416 0.049652472 -0.16853786
-0.33634126 0.2456558 0.531228 -0.22352816 0.5595566 -0.0027337526 0.05219992 -0.001340077
-0.17823236 0.62976706 -0.31111833 0.11971636 -0.23940861 -0.06382107 0.3308008 0.41832694
-0.096843936 -0.1173682 0.55379105 -0.17422505 -0.11504152 0.14432393 0.029860046 0.48418656
0.20720412 0.6176644 0.4238608 -0.14793397 0.18436491 -0.23531312 -0.036030073 -0.056424472
0.070687644 -0.23816596 -0.020188743 0.19400308 -0.36294532 0.3706067 -0.10877998 0.039913025
0.20076486 -0.033407196 0.23515694 0.47231394 -0.064444944 0.06408737 0.087868504 0.28736266
0.14299689 0.39522204 -0.1404657 -0.2702621 0.061154805 0.2254419 0.2939753 -0.14350712
0.2801409 -0.4755131 0.10687578 0.30187672 -0.012761218 0.016785037 -0.0797156 -0.12179356
0.39155623 0.0019026671 0.047757875 0.16103539 -0.018388689 0.04347448 0.08208071 0.016032528
-0.5264709 0.10890382 0.5080351 -0.018394887 -0.23876627 0.022889016 0.3789179 0.11397346
-0.040874016 0.58234394 0.41073164 0.14299284 0.42923185 -0.1427832 -0.31354234 0.28982374
-0.22062425 0.3765629 0.119719304 0.1149279 -0.18050086 -0.33285764 -0.04769603 0.19404127
0.048727285 0.08512944 -0.33956358 0.13489199 0.08873778 0.016249273 0.29294533 -0.36512956
0.64086086 -0.22121236 -0.21668465 -0.6705794 -0.07551645 0.09128067 -0.030784132 0.14704582
00000000: 99e7 923e 4714 6f3e 624b 953d 8d5d e9be
00000010: d8e5 93be 8381 843e 3a84 d53e 03e2 8d3d
00000020: 1b8e c43d 3e67 76bd 2f72 30be 22f6 743e
00000030: 8bf8 383e 368f b03e 830a 003f c147 35be
00000040: f090 30be f6cf 223d 35a1 29be 256e bb3e
00000050: 6ddc 5e3d 9cdd 183e ea3c da3d 1681 7ebe
00000060: 927b 733c 7f88 bcbb c331 863d 44f1 f83e
00000070: d343 b5bd 83ba a9be fd4b aebe e69d c03e
00000080: 870f 7abe f2a4 313e 20aa 23be a6c8 82be
00000090: 638a 9f3e a812 143e 164a a93e 4497 c4bc
000000a0: 7175 133f 3344 203e c551 da3e f299 0c3f
000000b0: 5e01 af3d 319e 9d3d 5f0e aabe c168 ae3d
000000c0: 57f8 303e ba38 e3be 4c46 6cbe 868f 1dbb
000000d0: 575b 753e 6b92 cf3d 9605 183f 62af 783c
000000e0: b47b b3bd ec95 18bf 2648 86be 1838 68bd
000000f0: 80a3 693e 937c f8bd 4f1b 7f3d 46ab b9bc
00000100: e541 ef3d 46c0 0dbf cfa8 803e 101b 5cbe
00000110: 5286 acbe 7de2 353d a9cf 133f 992f 9abe
00000120: a562 93be 7ec5 debc a7b0 b7be 394d 2bbe
00000130: 2a4a af3e 5c90 d23d 73a5 c8be 4ce8 1f3f
00000140: ef45 e1be cf5d 8f3d 1c83 623e 7d07 273e
00000150: 31cc 16be f5de 3abe 058c 1ebd ae9b e63e
00000160: f5e3 2dbe c868 f0be acf8 28bd 5d07 363e
00000170: 38fd ce3d dfa0 343c f0df 953e e71e 8a3e
00000180: 56e8 6e3d 20e2 34be 9240 fcbc 30da 833e
00000190: f423 9fbe 7de3 813d d0b9 bd3d 0de7 8bbe
000001a0: c1d1 a5bc e638 553d b2a3 8a3d 59ff cd3c
000001b0: ce50 6f3f ad22 5a3e 9445 3c3e 8a37 ac3e
000001c0: 4d95 973e de7a b5bd 08d5 d93b aa30 debe
000001d0: a5b8 b13e 556c 32be 6c65 81bd 187c 03be
000001e0: f2d9 273e e8c9 053e ded7 cf3d fc8e d13d
000001f0: 8452 78bd 212d 743e 6e1c 153d 3dda a53d
00000200: 52b4 b1ba 3a9a 063d 0178 683e d722 bf3d
00000210: 17d8 bc3e 321b ee3e 19f8 633e 4308 44bd
00000220: 9496 2dbd d223 94bd aeca 373e 8877 4fbc
00000230: 201a a33d 1584 13bf 6460 4b3d 3095 2cbe
00000240: ec34 acbe 328d 7b3e 8ffe 073f 91e4 64be
00000250: 1a3f 0f3f c228 33bb 95cf 553d 86a5 afba
00000260: 8b82 36be 6a38 213f e74a 9fbe da2d f53d
00000270: 8827 75be 9fb4 82bd b95e a93e f32e d63e
00000280: 1d56 c6bd bd5e f0bd 40c5 0d3f 0d68 32be
00000290: e39a ebbd a7c9 133e 0e9d f43c 4de7 f73e
000002a0: 512d 543e 411f 1e3f 4804 d93e 017c 17be
000002b0: 28ca 3c3e ecf5 70be 4594 13bd 591d 67bd
000002c0: afc4 903d c7e1 73be dd62 a5bc bea8 463e
000002d0: f8d3 b9be 29c0 bd3e 0ac8 debd d77b 233d
000002e0: 4e95 4d3e fcd5 08bd fbcc 703e 22d3 f13e
000002f0: b6fb 83bd 3d40 833d 67f4 b33d 3321 933e
00000300: c76d 123e 8b5a ca3e 3ed6 0fbe cb5f 8abe
00000310: 767d 7a3d 3eda 663e ee83 963e 88f3 12be
00000320: a16e 8f3e 7476 f3be b0e1 da3d 968f 9a3e
00000330: 6d14 51bc c680 893c ef41 a3bd e76e f9bd
00000340: 0f7a c83e ea62 f93a c39d 433d 76e6 243e
00000350: e0a3 96bc 4c12 323d ee19 a83d a656 833c
00000360: ccc6 06bf f708 df3d 970e 023f e0b0 96bc
00000370: 257f 74be bf81 bb3c 8701 c23e eb6a e93d
00000380: 836b 27bd 7e14 153f 6b4b d23e b76c 123e
00000390: 47c4 db3e c235 12be 9f88 a0be c763 943e
000003a0: 53eb 61be dacc c03e 652f f53d 525f eb3d
000003b0: 38d5 38be 516c aabe ea5c 43bd c1b2 463e
000003c0: 4396 473d 5858 ae3d 47db adbe 2021 0a3e
000003d0: 27bc b53d 321d 853c eefc 953e 43f2 babe
000003e0: 750f 243f 7e85 62be 95e2 5dbe 17ab 2bbf
000003f0: 5ea8 9abd 5cf1 ba3d 012f fcbc 2e93 163e

bias f4 [6]
0.28012294 0.15205021 0.08272166 0.12438945 -0.028079735 0.15957808
00000000: 466c 8f3e 0db3 1b3e f969 a93d e5bf fe3d
00000010: 7907 e6bc 7068 233e
