neyronki/kallah_neyron_prelu.pt (torch, 9519 bytes, 4 tensors)

weight f4 [78, 14]
0.37585402 2.1505787 -2.186468 0.30404046 -0.79499775 -1.3578115 0.023760306 -0.050870385
0.23549287 0.10314391 0.047542427 -0.04811572 0.22100835 0.020773584 1.6936252 -1.8444291
-0.30768058 -1.308298 2.5948062 1.1863924 -0.13255848 0.061183877 0.0428471 0.09863067
0.08494669 -0.05984278 -0.06680264 0.1503811 -0.34624338 0.50090855 2.515699 1.1086266
-2.0371943 -2.1265361 0.03766122 0.009916742 -0.018779716 0.19391692 0.11032863 0.005875759
0.06186492 0.06963988 0.042910602 0.0071075247 2.036454 -0.054547556 0.6755604 -2.8793502
0.026285157 0.0017172443 -0.042384956 0.19352007 -0.06588928 0.19796954 0.1358254 -0.024187626
0.16187191 0.4750512 0.6073972 -1.9591423 -0.07268089 1.7659252 0.11761697 -0.039736114
-0.057353415 0.028492056 0.06455927 0.054974627 -0.21192637 -0.17964374 -2.0887833 1.7485458
0.083771534 -2.0572217 0.78313875 2.069692 0.0568897 -0.1675499 0.010391727 0.05457508
0.027888201 0.06120423 -0.23677273 -0.09788298 1.7589253 -0.9248723 2.1159868 -0.56231344
-2.0597212 0.6617419 -0.08359298 -0.008303078 0.17381789 -0.00025512237 -0.08976565 0.17291853
-0.20227905 0.011980876 -2.3372767 0.5092547 1.928632 -1.5318912 0.22109282 2.3961632
-0.026339263 0.012459994 -0.041350164 -0.025809221 -0.059994604 0.19077873 -0.2747046 -0.086120635
-0.14566416 2.4679918 0.047990803 -0.7945411 -0.76153344 -1.7893945 0.016710795 0.022934334
0.115679085 -0.10398289 0.09265822 -0.11127042 0.38966423 0.07721565 3.0603902 -1.3787365
0.20639203 -0.48392093 -0.7105228 -0.061242994 -0.04511785 0.029635914 0.16722496 0.033426154
-0.0023024713 0.099927664 0.13534632 0.061865125 0.7912756 -0.7300365 1.5696917 1.8105556
-2.451713 -2.1449847 0.12533985 -0.2482967 -0.05103832 0.0845319 -0.06708437 0.05822899
0.2575307 -0.09666908 0.07382592 0.5475939 2.597348 0.40554538 -1.2083116 -2.0790343
0.039311662 -0.064446725 0.0806904 -0.06959383 -0.07357201 -0.04500875 0.10195378 0.12742345
1.9990777 -2.7506983 0.26760697 0.86796033 0.03524661 0.8112675 0.025375955 -0.046205852
-0.05717288 0.1384342 -0.13160352 -0.152454 -0.15520748 0.085607566 -0.26044264 -0.99116945
1.9002057 0.90642256 -2.9435017 1.5016823 0.09780947 -0.079147235 -0.19974434 -0.04923978
-0.09417144 0.09711028 -0.18347843 -0.054257076 1.9908053 0.8996591 -0.8795918 -1.8344932
-1.3526938 0.6022276 0.07730094 -0.11835498 0.15417077 0.19996382 0.14350213 -0.039707657
-0.13883317 0.06716606 0.5398797 -1.091163 1.5701183 1.8679903 -1.1260523 -2.263775
-0.086785644 0.03190963 -0.0001320068 0.21265231 -0.0761196 0.012842661 0.24296375 -0.07346139
2.5020375 0.16024823 -2.671157 -1.7834148 0.2498506 1.0906036 -0.16962391 0.15505405
0.10664437 -0.27741414 0.13938168 0.01972917 -0.010346193 -0.046853848 -2.5014265 -0.81737804
1.1570646 0.3603603 1.7252933 1.4272581 0.20528424 -0.20339842 -0.29732758 -0.056466203
0.027265664 -0.33858177 0.0046855207 -0.17234248 -0.5095923 -1.6036 -0.395737 2.5585115
00000000: f06f c03e 15a3 0940 17ef 0bc0 31ab 9b3e
00000010: f984 4bbf c4cc adbf f9a4 c23c 775d 50bd
00000020: 0b25 713e 1d3d d33d d9bb 423d fd14 45bd
00000030: 0350 623e 5d2d aa3c b6c8 d83f 4116 ecbf
00000040: 4f88 9dbe 4f76 a7bf 4e11 2640 b5db 973f
00000050: 69bd 07be f29b 7a3d 7180 2f3d e0fe c93d
00000060: 88f8 ad3d b41d 75bd d3cf 88bd 81fd 193e
00000070: d046 b1be 8b3b 003f 3601 2140 7ae7 8d3f
00000080: 6461 02c0 2b19 08c0 a742 1a3d d579 223c
00000090: ebd7 99bc 2892 463e faf3 e13d 7089 c03b
000000a0: 1266 7d3d 5a9f 8e3d 07c3 2f3d 3de6 e83b
000000b0: 4355 0240 426d 5fbd 87f1 2c3f 4647 38c0
000000c0: f853 d73c 2815 e13a d99b 2dbd 202a 463e
000000d0: f5f0 86bd 87b8 4a3e d015 0b3e 2125 c6bc
000000e0: c0c1 253e e939 f33e 627e 1b3f 2dc5 fabf
000000f0: b8d9 94bd d609 e23f 2ae1 f03d 56c2 22bd
00000100: 6aeb 6abd 2c68 e93c a737 843d 132d 613d
00000110: 3a03 59be 87f4 37be a0ae 05c0 59d0 df3f
00000120: 6990 ab3d 85a9 03c0 c87b 483f d575 0440
00000130: 2d05 693d 3392 2bbe 1042 2a3c 1e8a 5f3d
00000140: cc75 e43c 49b1 7a3d 8d74 72be df76 c8bd
00000150: 7724 e13f 6ec4 6cbf 546c 0740 c6f3 0fbf
00000160: 79d2 03c0 eb67 293f cc32 abbd a209 08bc
00000170: 51fd 313e f2c1 85b9 0ed7 b7bd 8e11 313e
00000180: 3d22 4fbe 704b 443c f195 15c0 845e 023f
00000190: 6add f63f 0315 c4bf 2866 623e bd5a 1940
000001a0: 70c5 d7bc 0125 4c3c ca5e 29bd dc6d d3bc
000001b0: e7bc 75bd 805b 433e 15a6 8cbe 0460 b0bd
000001c0: fc28 15be 94f3 1d40 0192 443d 0c67 4bbf
000001d0: dbf3 42bf e10a e5bf 14e5 883c c9e0 bb3c
000001e0: 28e9 ec3d fbf4 d4bd 98c3 bd3d bfe1 e3bd
000001f0: 1282 c73e 3d23 9e3d 6fdd 4340 707a b0bf
00000200: 6f58 533e 7cc4 f7be d2e4 35bf efd9 7abd
00000210: 7fcd 38bd 04c7 f23c 053d 2b3e dde9 083d
00000220: 0fe5 16bb e0a6 cc3d 3a98 0a3e 4966 7d3d
00000230: 0a91 4a3f ace3 3abf a8eb c83f 49c0 e73f
00000240: dee8 1cc0 6e47 09c0 1759 003e 7d41 7ebe
00000250: 8f0d 51bd 101f ad3d 8863 89bd 8581 6e3d
00000260: 10db 833e 70fa c5bd 0b32 973d 1d2f 0c3f
00000270: f33a 2640 a5a3 cf3e f4a9 9abf e60e 05c0
00000280: 4405 213d a5fc 83bd 0241 a53d 3687 8ebd
00000290: ecac 96bd 185b 38bd 25cd d03d 4b7b 023e
000002a0: c7e1 ff3f 710b 30c0 c803 893e a632 5e3f
000002b0: c05e 103d 3aaf 4f3f 3ce1 cf3c 5942 3dbd
000002c0: 1c2e 6abd b2c1 0d3e 13c3 06be e71c 1cbe
000002d0: b6ee 1ebe 0553 af3d bd58 85be 48bd 7dbf
000002e0: f139 f33f 4f0b 683f 5562 3cc0 2037 c03f
000002f0: 5550 c83d f217 a2bd c889 4cbe a7af 49bd
00000300: f5dc c0bd c1e1 c63d c5e1 3bbe ab3c 5ebd
00000310: b5d2 fe3f 0f50 663f ee2c 61bf acd0 eabf
00000320: 1225 adbf 972b 1a3f f54f 9e3d 1964 f2bd
00000330: f1de 1d3e 51c3 4c3e 39f2 123e 7fa4 22bd
00000340: 482a 0ebe 5c8e 893d 8e35 0a3f 3bab 8bbf
00000350: a3f9 c83f 4e1a ef3f 7b22 90bf b1e1 10c0
00000360: acbc b1bd acb3 023d 4e6b 0ab9 87c1 593e
00000370: 98e4 9bbd 066a 523c 7dcb 783e ed72 96bd
00000380: 6221 2040 1d18 243e 3cf4 2ac0 f046 e4bf
00000390: d6d8 7f3e e698 8b3f e4b1 2dbe 7dc6 1e3e
000003a0: 5d68 da3d 3a09 8ebe 12ba 0e3e 119f a13c
000003b0: 1483 29bc d2e9 3fbd 5f17 20c0 b03f 51bf
000003c0: b11a 943f 2581 b83e 69d6 dc3f 65b0 b63f
000003d0: 0836 523e ad47 50be 523b 98be 1b49 67bd
000003e0: 3e5c df3c 975a adbe ff88 993b 8c7a 30be
000003f0: a474 02bf c442 cdbf 0a9e cabe a7be 2340

bias f4 [78]
0.059544172 -0.18896885 -0.11766751 0.0778918 -0.0939185 0.18489783 0.021493843 -0.114741996
0.10403059 -0.32760713 -0.07058021 0.1662371 0.18785836 -0.16926269 -0.016111655 -0.01168488
-0.27243516 -0.010926809 -0.24083295 -0.13395734 0.1240081 -0.06946575 0.10764741 0.042504434
-0.028426288 -0.014007567 0.29752028 0.08372524 -0.04741039 -0.0026987987 0.28292844 -0.15912426
0.35373747 0.21654105 -0.17830998 0.31511745 0.12659165 -0.20357676 -0.01701381 -0.3366025
0.24574086 -0.023575874 0.018475499 -0.1938107 -0.22069496 -0.076328374 0.13467778 -0.09138646
-0.044662703 0.051312543 0.08412792 -0.17117584 0.38519478 0.19994901 -0.20295647 -0.10634065
0.28144452 0.10684719 0.0958873 -0.05059997 -0.17500071 0.040428888 0.056749538 0.16164978
0.1615261 -0.30525908 0.1295247 -0.31453726 0.14849071 0.17009759 0.026099293 -0.33352786
0.023640681 0.26345214 0.16033505 -0.036166262 0.06702597 0.14283642
00000000: 97e4 733d 0d81 41be aafb f0bd bc85 9f3d
00000010: 5858 c0bd db55 3d3e db13 b03c dafd eabd
00000020: fd0d d53d 1fbc a7be 5b8c 90bd 0f3a 2a3e
00000030: f15d 403e 3353 2dbe 97fc 83bc f071 3fbc
00000040: 9f7c 8bbe 5c06 33bc ea9c 76be 1d2c 09be
00000050: f5f7 fd3d 0f44 8ebd 3f76 dc3d 2119 2e3d
00000060: 3fde e8bc ff7f 65bc 9454 983e 2378 ab3d
00000070: 6631 42bd 54de 30bb ffdb 903e 78f1 22be
00000080: 141d b53e f0bc 5d3e e496 36be 1357 a13e
00000090: 3ea1 013e 6d76 50be 8c60 8bbc 2a57 acbe
000000a0: 7ea3 7b3e 3122 c1bc ee59 973c 5076 46be
000000b0: dcfd 61be 0d52 9cbd f9e8 093e d328 bbbd
000000c0: 3df0 36bd 1a2d 523d 424b ac3d b848 2fbe
000000d0: 4038 c53e 6fbf 4c3e d2d3 4fbe 20c9 d9bd
000000e0: 7f19 903e b3d2 da3d 9060 c43d ea41 4fbd
000000f0: 6333 33be c398 253d 3472 683d 8587 253e
00000100: 1967 253e eb4a 9cbe 1fa2 043e 070b a1be
00000110: f30d 183e 102e 2e3e 2fce d53c 2ac4 aabe
00000120: 1aaa c13c 33e3 863e df2e 243e 1323 14bd
00000130: e944 893d b643 123e

weight f4 [6, 78]
0.20865464 0.34027997 -0.03849912 0.09871079 -0.081213295 -0.64052874 0.37538096 -0.9731832
-0.041630086 0.6443811 0.40690312 -0.052865647 0.39085767 -0.12202927 0.29715315 0.3233807
0.61272484 -0.6579132 -0.09026855 -0.5586346 -0.5492011 0.12227829 0.13900994 -0.20400853
0.17554909 -0.05447045 -0.29807308 0.12546748 -0.6095831 -0.27222174 -0.16446769 0.5819185
-0.2531865 -0.5164586 0.5392689 0.66371024 0.2653981 0.21527904 0.7391937 0.46678036
0.31247717 -0.88557535 -0.054814734 0.80443966 0.47406432 0.1298159 -0.22717354 0.12040989
-0.58748084 0.14537455 0.38382745 -0.027743114 0.12311183 -0.1449827 -0.42485717 0.2452684
-0.41697952 0.07481675 -0.11247674 -0.5114657 0.55663115 -0.41888204 -0.595907 0.23115689
0.5400826 1.0029564 0.15990914 0.54049003 0.111875996 0.10949166 -0.22766201 0.31131575
0.7040488 -0.16017291 -0.019988809 0.14955202 0.29454386 0.20178837 0.450393 -0.5091942
0.1187233 0.07717237 0.04803906 0.7958538 -0.20314994 0.28321669 0.5048911 -0.3006305
-0.38281652 0.2414293 -0.92754537 -0.45602494 0.26437494 -0.3653597 0.047882505 -0.047762357
-0.59711045 -0.21903369 0.09407619 0.33491272 0.34580737 0.11556705 0.7961483 -0.21245308
-0.12259826 -0.05389997 0.09562419 0.63512146 -0.24309668 0.12063345 -0.24329235 0.27287033
-0.6098942 -0.68073064 -0.36589524 -1.1626568 0.1419427 0.1451086 -0.18623668 -0.2849158
0.1328587 0.17121455 -0.414187 0.26903757 0.08551614 0.033241596 0.4892616 -0.15529342
-0.19695792 -0.08273639 -0.68580484 -0.33402374 0.01340645 -0.048769213 -0.34055027 -0.20377924
0.62541044 0.2912668 -0.57021344 0.21249886 -0.10786588 0.4212313 -0.4259174 0.6988276
-0.0745641 0.37632844 0.015592072 -0.18630727 -0.11249526 0.0006325551 -0.34397775 -0.013081909
0.44317958 -1.0624332 -0.24742498 -0.37145963 -0.5224805 -0.19719991 1.1170921 0.6258161
-0.003359638 -0.06279851 0.6269347 0.6734899 -0.08061496 0.035880808 0.63049024 0.79915214
-0.045613624 0.7967952 -0.2109595 0.6193792 -0.9248751 0.18380973 0.050120283 -0.16487254
0.86989033 -0.80822486 -0.7621811 0.55851036 -0.22918586 -0.5382075 0.08965489 0.513583
0.013936778 -0.56947523 -0.014205652 -0.47102147 0.757248 0.17547028 0.44769266 -0.32146358
0.58833283 0.08675979 -0.022666998 -0.064483956 -0.8078234 1.4393865 -0.36249667 0.04302213
-0.29827464 0.7781192 -0.08774611 0.9611148 -0.8908081 -0.24058491 -0.3978311 -0.28423485
0.4092934 -0.78620386 0.43332297 -0.39351147 0.78013754 0.3739477 0.02184365 1.1382301
-0.69038075 0.025594816 0.06524264 -0.26826397 0.57375616 -0.58737534 -0.13587926 -0.63263965
-0.77411157 0.27539936 0.1530624 0.4047749 -0.2656176 -0.12733157 -0.5542376 -0.99432063
0.08059407 -0.9348987 0.11362414 -0.7230488 0.42557132 0.14270736 -0.11840634 -0.51307064
-0.262902 -0.5286009 0.0021422463 -0.14969389 0.7072309 -0.03114873 -0.026549095 0.27305403
-0.15744668 0.5359486 -0.5302229 0.06572224 0.91584575 0.14262688 -0.21232449 -0.16695017
00000000: 90a9 553e 2d39 ae3e 41b1 1dbd e228 ca3d
00000010: 2853 a6bd b1f9 23bf ef31 c03e 8922 79bf
00000020: 4f84 2abd 29f6 243f 9b55 d03e a689 58bd
00000030: 7f1e c83e 7bea f9bd 7524 983e 2892 a53e
00000040: 89db 1c3f 006d 28bf b8de b8bd ad02 0fbf
00000050: 7198 0cbf 0a6d fa3d 9f58 0e3e 9de7 50be
00000060: 24c3 333e 681c 5fbd 099d 98be 8c7a 003e
00000070: a30d 1cbf a660 8bbe 386a 28be 9cf8 143f
00000080: a9a1 81be a136 04bf 870d 0a3f eae8 293f
00000090: 42e2 873e 1c72 5c3e cc3b 3d3f d6fd ee3e
000000a0: 02fd 9f3e 11b5 62bf 6a85 60bd c2ef 4d3f
000000b0: 8fb8 f23e 76ee 043e 2ea0 68be 7699 f63d
000000c0: 2565 16bf 11dd 143e 0885 c43e 8745 e3bc
000000d0: 0e22 fc3d 5876 14be e186 d9be a427 7b3e
000000e0: 577e d5be 8639 993d 345a e6bd 6bef 02bf
000000f0: 617f 0e3f b577 d6be 5c8d 18bf 64b4 6c3e
00000100: da42 0a3f e060 803f 39bf 233e 8e5d 0a3f
00000110: 3e1f e53d 2a3d e03d 3b20 69be c764 9f3e
00000120: 8b3c 343f 5e04 24be 92bf a3bc 2a24 193e
00000130: 74ce 963e 9ca1 4e3e e999 e63e 8d5a 02bf
00000140: 3425 f33d 8c0c 9e3d 9bc4 443d 13bd 4b3f
00000150: 8a06 50be c701 913e 8b40 013f 3eec 99be
00000160: 8700 c4be 3e39 773e 9d73 6dbf 1a7c e9be
00000170: 275c 873e 6d10 bbbe 7220 443d 76a2 43bd
00000180: 3bdc 18bf 5e4a 60be 04ab c03d ae79 ab3e
00000190: aa0d b13e 6bae ec3d 60d0 4b3f 4d8d 59be
000001a0: cc14 fbbd 37c6 5cbd 9ed6 c33d 5297 223f
000001b0: 56ee 78be ac0e f73d a121 79be a9b5 8b3e
000001c0: 0722 1cbf 5d44 2ebf 9f56 bbbe f0d1 94bf
000001d0: 6d59 113e 5997 143e d4b4 3ebe 7ce0 91be
000001e0: 1c0c 083e de52 2f3e 5210 d4be 4bbf 893e
000001f0: 1623 af3d 5728 083d 7f80 fa3e 3d05 1fbe
00000200: 56af 49be b271 a9bd e890 2fbf 2905 abbe
00000210: baa6 5b3c 3ac2 47bd 9b5c aebe 81ab 50be
00000220: e61a 203f ec20 953e 82f9 11bf 4d99 593e
00000230: c9e8 dcbd a1ab d73e d811 dabe 5ee6 323f
00000240: 10b5 98bd 1fae c03e e475 7f3c 55c7 3ebe
00000250: ea63 e6bd 0ed2 253a da1d b0be 8155 56bc
00000260: 6fe8 e23e d0fd 87bf f95c 7dbe f52f bebe
00000270: 48c1 05bf c6ee 49be e0fc 8e3f 7c35 203f
00000280: 5f2d 5cbb 819c 80bd cb7e 203f d669 2c3f
00000290: 7519 a5bd c1f7 123d cf67 213f 3c95 4c3f
000002a0: 5ad5 3abd c5fa 4b3f c405 58be a38f 1e3f
000002b0: 9dc4 6cbf 9e38 3c3e ed4a 4d3d 59d4 28be
000002c0: 22b1 5e3f d3e7 4ebf 4d1e 43bf 89fa 0e3f
000002d0: b3af 6abe f7c7 09bf fc9c b73d 2d7a 033f
000002e0: 1557 643c 21c9 11bf d3be 68bc ba29 f1be
000002f0: 01db 413f 7bae 333e f937 e53e e096 a4be
00000300: fb9c 163f 1eaf b13d 24b0 b9bc 2a10 84bd
00000310: 84cd 4ebf d13d b83f 2a99 b9be f937 303d
00000320: 74b7 98be d232 473f 3cb4 b3bd 9f0b 763f
00000330: 000c 64bf e45b 76be 85b0 cbbe 3b87 91be
00000340: e88e d13e a844 49bf 82dc dd3e 567a c9be
00000350: 18b7 473f 1376 bf3e 74f1 b23c 86b1 913f
00000360: cbbc 30bf 38ac d13c ef9d 853d e559 89be
00000370: afe1 123f 3b5e 16bf ef23 0bbe acf4 21bf
00000380: 2d2c 46bf 2501 8d3e 64bc 1c3e a83e cf3e
00000390: 08ff 87be 3563 02be 84e2 0dbf cc8b 7ebf
000003a0: 810e a53d 8555 6fbf c6b3 e83d ba19 39bf
000003b0: 7ce4 d93e e121 123e 067f f2bd 9958 03bf
000003c0: 179b 86be 6352 07bf ee64 0c3b 5b49 19be
000003d0: 160d 353f 9f2b ffbc 7d7d d9bc bdcd 8b3e
000003e0: b439 21be ed33 093f b0bc 07bf 6299 863d
000003f0: de74 6a3f c80c 123e 976b 59be fcf4 2abe

bias f4 [6]
0.10846336 0.114953265 0.30294028 0.17209524 0.24622618 0.33701655
00000000: 0a22 de3d 9e6c eb3d fd1a 9b3e bc39 303e
00000010: b722 7c3e 6f8d ac3e
