neyronki/kallah_neyron_relu.pt (torch, 9249 bytes, 4 tensors)

weight f4 [78, 14]
00000000: 41c4 19bf 316a 50c0 79a1 313f 14b5 213f
00000010: c981 a3bf 3900 08bf c5ae 85be 97fe 90bd
00000020: 8a7b 33bf 3a06 b9be 2d40 343e 5631 57be
00000030: 3611 aabe 953d 72bf c1fa bec0 3d71 6640
00000040: c554 16bf 005b a3bd 50f9 a9bf d278 1540
00000050: 3909 383d c9cf 2d3b b630 693e 46fd 563e
00000060: 6b18 af3e 2760 1c3f a051 ce3e 1ac5 d03e
00000070: d143 693f b534 a53f 17e2 02bf a56e 0d3f
00000080: b7c3 763f 44dd c7bf f4e9 45bf fcd6 fbbe
00000090: 5f9a 08ba cb33 a8bd 3bc6 02bf b9fc 8dbf
000000a0: 9011 0ebe 2cbd 95be 8b95 d7be 2da3 47bf
000000b0: 977d 4dbf bf4f 103e 6c9b 8abe f9e5 4f3e
000000c0: d641 8abd cdb0 c5bd 1849 dcbb 4dd6 cdbe
000000d0: f0ea a8be c9f6 1cbe df87 003e be82 48be
000000e0: f0f4 78be aea3 ec3f 16e6 17bf 3b08 833e
000000f0: 33b0 2140 1452 c7bf 0ecf 23bf 438d c7be
00000100: 28c0 f0be 14c1 c0be 2e19 8abf ded5 0cbf
00000110: 23ef d0be e545 53be c5d5 63be ad75 633d
00000120: 0ecd 38be 7a51 20bd 0c33 93bd 6a40 333e
00000130: cc37 28be 6bb7 97be ed1f f2bd e2e4 eeba
00000140: e403 59be 2d2d 17bb 9603 9b3c b963 42be
00000150: 2bf8 a8bf fea3 49c0 3b83 e93f 288d f4be
00000160: be2c 07c0 bc21 13bf 3cad 47bf e485 40bf
00000170: 2675 16be e327 75be 53bc 43bf ccba 773e
00000180: 00bb 9abe 3b94 1abe 3822 423f 419c 26bf
00000190: 3658 14bf 182d e0bd 09e7 d6bf 4180 633f
000001a0: 9377 48bf f6fc 3cbf ddaf abbe 8267 38bf
000001b0: b570 cebe 4156 37bf d176 51be ca5b 62be
000001c0: 03d6 a8bd 2aeb 29be 348d 56be 6ace 93be
000001d0: 88c5 60be 97c0 c9bd cd14 40be 7b6e 3ebc
000001e0: 4069 2f3c 0e95 56bc a5c7 7dbe 9366 ec3d
000001f0: 53bd 38be bc3a 04be 3c17 7540 fb00 5ec0
00000200: d3c6 98bf 65e7 4340 bef9 043e 34af 6ebf
00000210: e23a 403d 2837 a83e f485 803e 52f9 9b3d
00000220: a7a0 4e3f f047 193e 91de ecbd 25ea 953e
00000230: 5b2d c6bd b4dc 1240 a8c0 50bf 9e4f febf
00000240: f05c 1240 dca0 11bf 9bd3 55bf 9ee8 0cbf
00000250: 58ca abbe 5590 c0bd 87e7 8dbf 678e f4be
00000260: d5f6 343e 4e7b 01be fa8f f83f b51e 1ec0
00000270: b6ad 0f40 0021 0140 c724 0240 d71a 44c0
00000280: 81e5 57be ee6b 08bf 5163 c13d a9fa a03e
00000290: 8b53 96be c96f 813d f235 e7bd 55a2 673e
000002a0: 3d28 2abf 2e68 98be 2e76 4abf 2c13 be3e
000002b0: 203e 653e e150 eabe 9307 15bf 2a50 e1be
000002c0: a306 74be e4b0 8dbe 505a d5be 87e0 32be
000002d0: 9e50 823e b329 30bc c7dd 5340 0c5c ddbf
000002e0: e978 a9c0 8e97 6ebe 17d1 92bf 8de5 6940
000002f0: dc57 1f3c 6d19 183e fc30 2c3e 4e36 a63e
00000300: 3b4a 253e 16e2 523e 2dfb cb3c d4d8 803e
00000310: 44a2 853f d0ee 4540 535f debe d47c dcbe
00000320: f327 e5be 46e6 723f f5e9 dfbe 1c66 03bf
00000330: 99e6 b03e d4b3 313f fb1f 9fbe b739 9bbf
00000340: c98f 4dbe 0d7a b63e 24cf 2b3f 47a8 87bf
00000350: 1385 703f ebff 2ebf 4220 d1bf c7f6 b4bf
00000360: 4188 053e 6310 e4be 9d38 4ebe 6fe7 0bbf
00000370: 560f 14bf 6271 50bf 3020 04bf b3e5 10bf
00000380: 0514 8ac0 6eb8 2040 f148 63be e098 ac3d
00000390: 6d6a 5740 8ffd d13f 1166 c8bd b34d 173e
000003a0: b4f8 143c efce 033d a1cf 943e 0adc 813e
000003b0: 00ec bebe 54ad c13e 4f7c ecbd 6b08 1abd
000003c0: 734c 633c b6a6 c13d a041 b8bc a992 b6be
000003d0: 3585 bcbe ee05 78be c1b1 8cbe 2f2e 44bd
000003e0: b942 a63c 8b66 d1be 07d9 cabe e687 433d
000003f0: d715 e9be 99df 473e 2b2d 83bc cddd ffb8
-0.60065085 -3.2564814 0.6938701 0.6316693 -1.2773982 -0.5312534 -0.261099 -0.07079809
-0.7011038 -0.36137563 0.17602606 -0.21014914 -0.33216256 -0.94625217 -5.9681096 3.6006615
-0.587231 -0.07976341 -1.3279209 2.3354993 0.04493067 0.0026521555 0.22772488 0.20995054
0.34198317 0.61084217 0.4029665 0.40775377 0.91119105 1.290671 -0.51126236 0.55246955
0.9639239 -1.56144 -0.7731011 -0.49187458 -0.00052109914 -0.08213004 -0.51083726 -1.109275
-0.13873887 -0.2924589 -0.4210628 -0.7798336 -0.8026976 0.1409292 -0.27071702 0.20302571
-0.067508385 -0.09652863 -0.0067225806 -0.4020256 -0.32991743 -0.15328516 0.1255183 -0.19581124
-0.24312186 1.8487451 -0.5933546 0.25592217 2.5263793 -1.5571923 -0.63987815 -0.38974962
-0.47021604 -0.37647307 -1.0788934 -0.55013835 -0.40807447 -0.20632131 -0.22249515 0.055532146
-0.18046972 -0.039140202 -0.07187471 0.17505041 -0.16427535 -0.29632124 -0.118224956 -0.0018226171
-0.2119289 -0.0023067698 0.018922608 -0.18983354 -1.3200735 -3.1506343 1.8243173 -0.47763944
-2.1121058 -0.5747335 -0.7799871 -0.752043 -0.14693126 -0.23940997 -0.76459235 0.24192351
-0.30220795 -0.15095608 0.75833464 -0.65082175 -0.579471 -0.10946101 -1.6789256 0.88867575
-0.78307456 -0.7382349 -0.3353261 -0.7203294 -0.40320364 -0.7161599 -0.20455481 -0.22105327
-0.082439445 -0.16593614 -0.20952302 -0.2886842 -0.21950352 -0.09851187 -0.18757935 -0.01162302
0.010706246 -0.013097061 -0.2478319 0.11543002 -0.18040971 -0.1291303 3.829543 -3.4688098
-1.1935676 3.0609982 0.12985894 -0.9323609 0.046931155 0.3285458 0.25102198 0.076159135
0.80713886 0.14968848 -0.11565889 0.292802 -0.096766196 2.2947206 -0.8154397 -1.9868047
2.2869225 -0.56886077 -0.8352601 -0.55042446 -0.33552814 -0.09402529 -1.1086282 -0.47764894
0.17672284 -0.12644693 1.9418938 -2.4706242 2.2449775 2.0176392 2.0334947 -3.0641382
-0.21083643 -0.5328969 0.09442771 0.3144124 -0.29360613 0.063201495 -0.11289586 0.22620519
-0.6646765 -0.29766983 -0.7908658 0.37124002 0.2238698 -0.4576483 -0.5821468 -0.44006473
-0.23830657 -0.2767402 -0.41670465 -0.17468463 0.2545213 -0.010752129 3.3104112 -1.7293715
-5.2960095 -0.23300001 -1.1470059 3.6546357 0.009725537 0.14853449 0.16815561 0.32463306
0.16141598 0.20594057 0.024900043 0.25165427 1.0440145 3.092701 -0.43432102 -0.43063986
-0.4475704 0.9488262 -0.43733183 -0.5132768 0.34550932 0.6941502 -0.31079087 -1.2126988
-0.20074381 0.35639992 0.67112947 -1.0598229 0.93953055 -0.6835925 -1.6337969 -1.413781
0.13040258 -0.44543752 -0.20138784 -0.54650015 -0.578359 -0.8142301 -0.51611614 -0.56600493
-4.314944 2.5112567 -0.22195794 0.08427596 3.3658707 1.6405505 -0.097850926 0.14775734
0.009092499 0.03217977 0.29064658 0.2536319 -0.3728943 0.3782755 -0.115471475 -0.037605684
0.013873207 0.09455626 -0.02249223 -0.35658768 -0.3682038 -0.24221012 -0.27479365 -0.047895607
0.020295488 -0.40898547 -0.39618704 0.047737025 -0.45524475 0.1951889 -0.016012749 -0.00012200661

bias f4 [78]
00000000: b99d 7cbf 06f9 a93d 0eb1 85bf 5685 15be
00000010: ecd0 29bf 4a05 90bd aa5f 87bf 73b4 89bf
00000020: 51d6 b9be 6e5e b83d 0224 6dbf 77d6 583d
00000030: 7891 3bbe e2e7 0bbe aab6 f3be 3db8 47bf
00000040: 051f 8c3e 7e04 403d 3747 f1be 70b7 1ebf
00000050: c5c8 aabe a198 5abe da2d 83bf d415 5ebf
00000060: ea40 1dbe 1849 8dbc 6aff 5cbd a8e3 06be
00000070: 5f92 8d3c 3bef 2bbe 3914 0fbf 3a0b a0be
00000080: caa6 5d3e 9277 51bf ef9a 10bc 41d1 eabd
00000090: 6d0c ce3d 8a6c 9dbe 98dc 8ebd 0d89 84bf
000000a0: 0a3d 133f 2e7e 6ebe fbed 94be 7544 63bf
000000b0: a40c 8bbe 7aac 823e aaa2 abbe d634 d53d
000000c0: 7729 1cbf 121d 03bf 87d6 26bf 1b35 03be
000000d0: dec3 cabe 63c9 ec3e 3ba5 073f ec8c 85bf
000000e0: 394f cc3e 5e0b 023e 6232 15be 6268 13bf
000000f0: 96ac 88be 61d4 823e bbe4 aebd 1458 4fbc
00000100: 7404 2dbf 52e3 80bd 4dfb 39bf 9839 af3d
00000110: 98ee 83be 554f 11bf 1bec f9be 9221 0ebf
00000120: f35f 41bf aaa0 ccbe af7e edbd 0d9f ae3e
00000130: 7ca2 d13e a9cd 84be
-0.98678166 0.082994506 -1.0444658 -0.14601645 -0.66334414 -0.07032259 -1.0576069 -1.0758194
-0.36296323 0.09002386 -0.9263307 0.052938905 -0.1831721 -0.13662675 -0.476003 -0.780155
0.27367416 0.046879284 -0.47124645 -0.61998653 -0.333563 -0.21347286 -1.0248368 -0.8675206
-0.15356794 -0.017246768 -0.05395452 -0.13172781 0.01728171 -0.16790478 -0.5589023 -0.31258565
0.21645656 -0.81823075 -0.008826002 -0.11465693 0.10060964 -0.3074687 -0.06975669 -1.0354325
0.57515013 -0.23290321 -0.29087815 -0.8877633 -0.27158082 0.25522214 -0.3352254 0.10410468
-0.6100077 -0.5121623 -0.6517109 -0.12813227 -0.3960256 0.46247396 0.52986497 -1.0433631
0.39904192 0.12699649 -0.14570001 -0.5758115 -0.26694173 0.25552657 -0.085397206 -0.012655277
-0.6758492 -0.06293358 -0.7264908 0.08555907 -0.2576797 -0.56761676 -0.48812947 -0.55519974
-0.7553703 -0.39966327 -0.115964286 0.3410572 0.40944278 -0.25938156

weight f4 [6, 78]
00000000: 6599 4fbc 992e fcbf 2227 39be ff4c 553e
00000010: 7da8 8bbf 45fe 153d fb5e 193f d31e 2f3e
00000020: f771 003e a495 a73f c87d 61bf 5284 a73f
00000030: 3fb7 01be a935 a03f c604 5abf 09ed 123f
00000040: d049 a2bf f2ae 18bd 07cb 1cbe c95b 16be
00000050: cda6 983f 911f 803f d7b9 cbbe 2507 e73e
00000060: 2500 e13e eb42 aa3f 39a2 ea3e e89f d83c
00000070: 2164 c13f 1780 913d a14f 1d3e 7173 c33d
00000080: b6fc bf3f ffd8 19bf 6f1f e0bc 31c0 653f
00000090: e606 e63c fb16 b73f 49ee 8c3f e39b f53d
000000a0: d793 06c0 41b8 dc3e 25ad 433f 19bb b03d
000000b0: ab03 523f 4c2b a63f 4816 36bf d040 a43e
000000c0: a703 f0be 59aa a53e d341 9fbe e924 b83d
000000d0: 975c 4a3c 76b4 b13f 390b a53e 6a6e c73e
000000e0: f11b 973e 1718 853f bb96 323f 765b 06bd
000000f0: 61da 963f a7ba ffbd 3963 bc3f 7c4f 793f
00000100: 8ab0 96be 4cc5 893e 187f 60be a2ee 1cc0
00000110: 2778 a23e be21 733f 1825 16bd 62ee 233e
00000120: 6108 333d 8003 7a3f 2e97 ad3f c325 703f
00000130: 174f a53f 0e19 3d3f 6161 39bf d452 ae3f
00000140: b00b 28bd 3567 083e aa7d 8d3d f599 10bb
00000150: 54d0 5bbf 9482 913c 6aba 883d 943a 30bf
00000160: b445 9e3e 2655 95bf 4e8f e73e 7439 f5be
00000170: 86c0 813f 6ac9 b73d 8f5f 963f 06cf 2fbe
00000180: bf8d fabc ffb1 313e d3f5 6bbf c945 d7be
00000190: aeda cc3e 15f5 403f aeca 1bbf 5638 30bf
000001a0: 36c9 363f e36c d9bd 964f d4be 6b77 ab3c
000001b0: 7ece 8a3e 72d9 52bd abfc 19c0 ee50 e73e
000001c0: 7c44 853f a46a cfbc 53a9 703c aa89 4abf
000001d0: daee a43e f7cc a63e e047 febe b0a5 113e
000001e0: c8b9 5abe ac43 503e 4aa0 a33f 0c71 953f
000001f0: 3b15 3a3e a669 b13f 323f fb3e b99e 4cba
00000200: 35da 46bc 755d 78bf 3209 233e 4800 d5bf
00000210: c785 ba3f 184c 03bf e139 923f de3d be3f
00000220: 77b7 0a3f e02f c73d ed98 ccbe 9ac9 963f
00000230: aaa3 0bbf d4bc 563f bf1c 3dbe 8abd d23d
00000240: b679 103c add8 043e bdc3 56bf 79d5 8cbf
00000250: 4366 4f3e 9aee 773e 8fc5 36be 07e0 f93e
00000260: 0f4d f73c 64dc b7be cfbc 7f3f 75e8 923e
00000270: d5b4 103e ed7d 2d3f bc33 5fbf ae52 3b3e
00000280: 7d80 873e 3a17 d7bd 589a 423f e8a9 2d3e
00000290: 80c1 ae3d b905 bb3e 9ef7 893d a38f 973e
000002a0: a119 9b3d b167 c1bf 4e32 05c0 8e57 943e
000002b0: 29de 2c3e 8866 ce3b 2347 1d3d 5239 1c3e
000002c0: d278 873f 2672 b8bc a7d8 8fbf b92d 8e3e
000002d0: aa12 11bf 8b65 ea3e 2b36 53bf ddf8 0d3e
000002e0: c556 7f3f 5251 663d c553 b03d 095d 873d
000002f0: f161 4c3f 90db 8ebe f155 06be 663b 253f
00000300: 87e6 b53d 0e21 fa3e 9250 28bf 6268 983e
00000310: 341b c33f a22f 3fbb 0fca 57bf 8586 e43e
00000320: 6640 d23e bad5 28bf 3456 793e bf70 d03f
00000330: f533 92bf b606 bd3e ee97 a73e f115 10bf
00000340: 257a 973d f252 5a3f f134 3b3f a0c4 083f
00000350: a0d5 a43e fce5 3b3f 48f0 3d3f 0bc6 1d3e
00000360: 5a9e 7fbf 974d b0bf 564d 1b3f b09c 5f3f
00000370: ed1a 9abd ac90 fabc 52ae e73e 9bab ea3f
00000380: e6f5 58bf db12 f03e 7b2e 37bd d6c4 fdbe
00000390: ce88 94be 7393 d4be 43ee 53be 90a7 653f
000003a0: e4be 8d3f ec6f cc3e c689 a33e 8d50 843e
000003b0: 1c05 553f 2a5f 8a3e c071 e6be 960e 6a3d
000003c0: 26ad e03e 517f 833e 100a f33d e69a 8f3f
000003d0: ef55 12bf c03a 1e3f 1469 2d3e 371d 073f
000003e0: f88a 2f3e 7638 a23d 2c7f 33bf 5c1f 7fbc
000003f0: 3782 3dbe dfa7 903d 5886 1c3f 50ea 88bd
-0.012670849 -1.970172 -0.18081334 0.20830153 -1.0910794 0.036619443 0.59910554 0.17101602
0.12543474 1.3092542 -0.8808255 1.3087256 -0.12667559 1.2516376 -0.85163534 0.57392937
-1.2678776 -0.037276216 -0.15311824 -0.14683451 1.1925904 1.0009633 -0.39790222 0.45122638
0.43945423 1.3301672 0.4582689 0.026443437 1.5108682 0.07104509 0.15362407 0.09543503
1.4998996 -0.60096735 -0.027358739 0.89746386 0.028079461 1.4303888 1.1010219 0.11992624
-2.1027734 0.43109325 0.7643607 0.08629436 0.82036847 1.2981963 -0.7112775 0.32080698
-0.46877787 0.32356527 -0.31104907 0.08991415 0.012351177 1.3883197 0.32235125 0.38951427
0.29513505 1.0397977 0.69761246 -0.032802068 1.1785394 -0.12486773 1.471778 0.9738691
-0.29431564 0.26908338 -0.21923482 -2.452065 0.31732294 0.9497336 -0.03665647 0.16008905
0.043709163 0.9766159 1.3561761 0.9380762 1.2914761 0.73866355 -0.72414213 1.3619027
-0.04102677 0.1332062 0.06908734 -0.0022064422 -0.8586476 0.01776246 0.06676181 -0.68839383
0.30912554 -1.166661 0.4522652 -0.47895396 1.0136878 0.089739636 1.1747912 -0.17168817
-0.030585168 0.17353056 -0.92171973 -0.4204543 0.4001059 0.75373966 -0.6085614 -0.6883596
0.71400774 -0.106164716 -0.4146697 0.020930966 0.27110666 -0.051476903 -2.4060466 0.45178932
1.0411525 -0.025319405 0.014688808 -0.7911631 0.3221348 0.3257825 -0.4966421 0.14223361
-0.21359932 0.20338315 1.2783291 1.1675124 0.18172161 1.3860366 0.49071652 -0.0007805634
-0.012136986 -0.97017604 0.15921476 -1.6640711 1.4572076 -0.51287985 1.1423913 1.486263
0.54186195 0.09725928 -0.39960423 1.1780274 -0.54546607 0.8388188 -0.18467997 0.10290058
0.008818081 0.1297328 -0.8389242 -1.1002647 0.20253853 0.24212113 -0.178488 0.48803732
0.030188112 -0.35910332 0.99897474 0.28692976 0.14131482 0.6777027 -0.87188315 0.18293259
0.26465216 -0.10502477 0.7601676 0.16959345 0.08533001 0.36527804 0.06736682 0.29601774
0.07573248 -1.5109769 -2.0811954 0.2897305 0.16881622 0.006298844 0.03839792 0.15256241
1.0583746 -0.022515368 -1.1237992 0.2776926 -0.56669104 0.45780596 -0.8250453 0.13864465
0.99741775 0.056229897 0.08609728 0.06609542 0.79836947 -0.27901888 -0.13118722 0.6454376
0.0888186 0.48853344 -0.6574794 0.29767138 1.5242677 -0.0029172678 -0.8429269 0.4463388
0.41064757 -0.6595112 0.2434929 1.6284407 -1.1422106 0.36919183 0.327331 -0.5628348
0.07396344 0.85282815 0.7312766 0.53425026 0.32194233 0.73397803 0.74194765 0.15407579
-0.99851 -1.3773679 0.6066488 0.8734846 -0.07524667 -0.030586563 0.45250183 1.833362
-0.8475021 0.46889386 -0.04472206 -0.49564236 -0.29010624 -0.41518745 -0.20696358 0.89708805
1.107388 0.3992914 0.3194105 0.25842705 0.8321092 0.2702573 -0.4500866 0.057142816
0.43882102 0.25683072 0.11867154 1.1219146 -0.57162374 0.61808395 0.16934615 0.52778953
0.17142856 0.07920925 -0.70115924 -0.0155714415 -0.18506704 0.07063269 0.6114249 -0.066853166

bias f4 [6]
00000000: 3462 203f 6873 cb3e f7a9 c53e 975b 363f
00000010: 23f2 253f 40fa 313e
0.62649846 0.39736485 0.38606235 0.71233505 0.64822596 0.17380619
