neyronki/kallah_neyron_prelu_52n.pt (torch, 7371 bytes, 4 tensors)

weight f4 [52, 14]
00000000: ade9 903f 351e 433f 0647 873f 2769 d23f
00000010: c206 84bf ecaf eabf 673b eb3d 197e bdbd
00000020: b19a 183e e63f 0dbe 41f9 de3d 21e7 d5bd
00000030: a167 9ebd 1902 50be 0cc1 0640 f734 dbbf
00000040: 01b4 0d3e 7366 e03f ddf9 e4bf 8421 1cbd
00000050: f417 74bc 5638 f63d 3d17 9d3d 4dd3 10be
00000060: 5303 61be 6870 c4bd 9c67 0bbe 04f3 bdbd
00000070: 5acb 473c 56ca f5bd dba6 b43f 2d1c 16c0
00000080: 461b 9bbf ee97 10be 09f3 e8bd d17a fc3d
00000090: 07bd ac3d 4610 7b3d c4dc 35bd 6b29 c33d
000000a0: daa9 1abe f372 32bd 42c3 1340 de4e c63d
000000b0: 2f1d aebf 2a8b 853f 4c33 edbf 2e43 813d
000000c0: 1660 4cbe 2727 0c3e 348e 0d3e 8799 58bd
000000d0: 6ccf 28bd 2479 043e 7072 8d3e 8bf4 573e
000000e0: 1428 a53f e385 cdbf aa84 ef3f 8f3b acbd
000000f0: f15f e8bf bded c0be 33de 07bc 7343 78bd
00000100: 905b 7f3d 4b97 6f3e 37c1 4a3e c252 59bd
00000110: f514 1c3d a527 923e b8d1 37bf 2861 243f
00000120: 186b fd3f 2f26 ee3f 61b5 7e3d 4f67 e2bf
00000130: 679a ffbc b9a9 a83d 5150 1fbe 29ef 1b3d
00000140: 7bb6 e3bd bb31 45be 330d 65bd 9b64 26be
00000150: 5777 5ebf 7543 bb3f 9e38 08c0 2dee dc3f
00000160: 5446 493f 6c40 5a3f 708c 69bb 7606 e3bc
00000170: 4feb 3e3d 2205 1fbe 6e20 c93d db09 3e3d
00000180: fa89 993d 424e 623d 8b37 0440 6aca a93f
00000190: 8e9a 88be 7dbc d6bf f188 3f3e 3444 d3bf
000001a0: cba6 9d3c 6946 d4bd c59c 133c 2b60 293e
000001b0: ed0e 823d abfe 1fbd 24e0 943d c9f6 733d
000001c0: 5970 f9bf 16a4 33bf f80c d13f d1eb 9dbf
000001d0: ad68 853f 5252 ed3c da8f 98bd a282 cb3d
000001e0: 4049 d2bd 94ac f03d e98e 453e 8fa7 583e
000001f0: 100a fabd 70f6 163e 05d8 99bf 6a76 043f
00000200: 569d 82be d03a b4be b3b2 efbf e6e1 0440
00000210: 58d5 eebd 5b48 20bc f2c1 0a3e 2c69 a43e
00000220: 373d 2b3e e08d c63d d3c7 e03d b360 373e
00000230: 3802 f63e 96f4 16c0 1411 963d cae4 a8bf
00000240: 5b60 5bbf 727c c53f 3c1a 1cbe 9c56 1e3e
00000250: bd72 a8bc e390 e63c c16b d93b f191 94bc
00000260: a017 04bc 4a6a 9dbc 4a7d 503f f43c fd3f
00000270: 7a9f 9fbf 9d08 26bf 74f8 10c0 6513 b43f
00000280: c852 6ebd 7c5f f2bb f862 bfbd d266 1c3d
00000290: 8324 153e b9e2 15be 692a a9bd a8c2 11bc
000002a0: 85c0 bf3f 349e 07c0 73e9 bebe b68c 3d3f
000002b0: e343 acbf 27bf 393f 96c8 7ebd 75ce 0f3e
000002c0: aab9 88be 3104 9f3c 6173 4dbe 9a28 cdbb
000002d0: 4aa8 0d3e df1f 263e 27c1 87bf f55c b93e
000002e0: 99a8 92bf fdbb ce3f 4073 b4bf a85c 0340
000002f0: 6ec1 0abe d6d8 0d3e a038 0e3e 6c9b b0bd
00000300: dd19 513e 02e4 143e c9a1 4d3c d4a9 933d
00000310: 8eee 58be 6be1 d63f cf75 ca3f cb48 0abe
00000320: bcb0 153f 4f86 fdbf 667e 1ebe 14c7 dd3d
00000330: 9bb0 19bd a28f 813d 7c6c e93c 3a2a 80bd
00000340: 9cdb babd e1d0 89bd 8acb 843f f0db 28c0
00000350: 3c06 803f cc1d b03f 72c4 903f d03a 46bf
00000360: 439b babd e2bf 8e3d b72d ccbd 1589 08be
00000370: 9da1 ed3c 7a39 36bd 8d43 62be 13de bfba
00000380: 5aba 483f 609a 803f 7a7f ed3f 786b 253f
00000390: 935f b1bf d58d e8bf 23db 1d3e 8ee0 f7bd
000003a0: da88 9dbd 88ed 0c3e c011 05bd 503a 3bbe
000003b0: 3d13 c03c 6281 dd3c a247 513e afe2 2cc0
000003c0: 3ed9 09bf 737f f1bc 607d 76be 913f dd3f
000003d0: 98a7 463d 9bf3 d1bd 6bad 89bb ab96 ccbd
000003e0: 0852 88bd 0652 0e3d 45c6 e83d e395 093d
000003f0: 3152 8fbf 7f50 c13f 5620 e9bf 840c c03f
1.1321312 0.7621797 1.056855 1.643834 -1.0314562 -1.8334937 0.114859395 -0.09252567
0.1490276 -0.13793907 0.10887385 -0.10444475 -0.077346094 -0.203133 2.1055326 -1.7125539
0.13838197 1.7531265 -1.7888752 -0.0381179 -0.014898289 0.12022464 0.07670448 -0.14143105
-0.21973924 -0.09591752 -0.13613743 -0.09274867 0.012194479 -0.12001483 1.411342 -2.3454697
-1.2117698 -0.14120457 -0.1137448 0.12328113 0.084344916 0.061294816 -0.04439999 0.09529384
-0.15103856 -0.043566655 2.3087926 0.096830115 -1.3602656 1.0433095 -1.853128 0.06311642
-0.19958529 0.1368681 0.13823777 -0.05288079 -0.041213438 0.12936836 0.2762637 0.2108938
1.2902856 -1.6056484 1.8712361 -0.084097974 -1.8154279 -0.3768138 -0.0082927225 -0.0606112
0.06234318 0.23397557 0.19800268 -0.05305744 0.038105924 0.2854587 -0.7180438 0.6421075
1.9798307 1.8605403 0.062184695 -1.7687777 -0.031201554 0.08235497 -0.15557982 0.038069878
-0.1111879 -0.19257252 -0.05592079 -0.16249315 -0.8690085 1.4629961 -2.1284556 1.7260185
0.7862294 0.8525455 -0.0035636686 -0.027713042 0.046611127 -0.15529302 0.098206386 0.046396118
0.0749702 0.055250414 2.06589 1.3264897 -0.26680416 -1.6776272 0.18704583 -1.6505189
0.019244572 -0.10364992 0.009009545 0.16540591 0.06350503 -0.03906123 0.07269314 0.059561525
-1.9487411 -0.7017225 1.6332083 -1.233759 1.042257 0.028969917 -0.074493125 0.099370256
-0.102678776 0.11751667 0.19292797 0.21157669 -0.122089505 0.14742446 -1.2019049 0.51743186
-0.25510663 -0.3520112 -1.872641 2.0762877 -0.11661786 -0.009782876 0.13550547 0.3211149
0.1672257 0.09695029 0.109756134 0.17907982 0.48048568 -2.3586783 0.07327476 -1.3194821
-0.856939 1.5428603 -0.15244383 0.15462726 -0.020562524 0.02814526 0.0066351597 -0.018135997
-0.008062273 -0.019215722 0.81441176 1.9784226 -1.2470543 -0.6485689 -2.2651644 1.4068419
-0.058184415 -0.0073966365 -0.09345049 0.038183995 0.1456471 -0.14637269 -0.08260042 -0.008896507
1.4980627 -2.119031 -0.37287483 0.7404283 -1.3458217 0.725573 -0.062203012 0.14043601
-0.2670415 0.019411178 -0.20063545 -0.0062609436 0.13833728 0.16223095 -1.060582 0.36203733
-1.1457702 1.615112 -1.4097672 2.0525303 -0.1355035 0.13852248 0.13888788 -0.08623394
0.20420022 0.14540103 0.01255078 0.072101265 -0.21184751 1.6787542 1.5817202 -0.13504331
0.584728 -1.9806613 -0.15477905 0.10828987 -0.03752194 0.06326224 0.028494112 -0.06258054
-0.091239184 -0.067292936 1.0374615 -2.638424 1.0001903 1.3759093 1.130995 -0.7743349
-0.09111645 0.069701925 -0.09969657 -0.13333543 0.029007727 -0.044488408 -0.22096081 -0.0014638327
0.7840935 1.0047112 1.8554528 0.6461711 -1.3857292 -1.8168284 0.15415625 -0.12103377
-0.07692118 0.13762486 -0.03248763 -0.18283963 0.023446674 0.027039234 0.20437482 -2.7013357
-0.5384711 -0.029479718 -0.24071264 1.7285024 0.048499674 -0.10251542 -0.0042015812 -0.09989675
-0.06656271 0.034746192 0.11365942 0.03359021 -1.1196958 1.510269 -1.8212993 1.500382

bias f4 [52]
00000000: 4064 883e 3981 39be 6313 183d 6ac9 88be
00000010: 7438 133e 350e d0bd 8ed3 eb3d d43c 82be
00000020: 21a2 4ebd 0250 20bc 003d 813e 0967 253e
00000030: 655d a3bd ee9a c43d 45a2 763e fe46 873d
00000040: 56c4 ca3e 29aa d63b c6dd dbbd 2d77 42be
00000050: 7a53 a53c 9217 333e ea38 c53c 4f5e 5e3e
00000060: 5778 f83d 76ad f7bc 379d f03d e4bb 643d
00000070: 3a01 0d3d e66b 3d3e ee9c 053e ae5a b3bc
00000080: 8531 34bd 1e95 dabe abe9 71be e58e bebc
00000090: 9541 1b3e 4699 a2be b3f2 0ebd 6653 61be
000000a0: 255d 533e 4c32 55be 3f3b 8c3e 217b 953b
000000b0: 4fbc 153d b017 2dbd 1764 dbbe 0299 aabd
000000c0: 2dc0 1cbe 3e68 dc3c ab17 44be 13e8 083e
0.26638985 -0.18115701 0.037127864 -0.26716167 0.14377004 -0.1015896 0.1151496 -0.25437033
-0.050447587 -0.0097847 0.25241852 0.16152586 -0.07976798 0.09599863 0.24085338 0.066053376
0.39602917 0.0065510464 -0.10735659 -0.18990774 0.020181406 0.1748946 0.02407499 0.21715663
0.12132328 -0.03023408 0.11748736 0.05584325 0.034424998 0.18498191 0.13048145 -0.021893825
-0.043992538 -0.42691892 -0.23624294 -0.023261497 0.15161736 -0.31757563 -0.034899425 -0.2200447
0.20641 -0.20819968 0.2738895 0.0045617973 0.03655654 -0.04225892 -0.428498 -0.08329965
-0.15307684 0.026905175 -0.19149654 0.1336978

weight f4 [6, 52]
00000000: 2dd7 a43d 9c30 353f d8e7 9c3d ff90 3f3f
00000010: 29dd da3e 8eb8 c6be 6893 cbbe 6b05 263f
00000020: 84d0 3cbe a0fd 4d3d 1490 873e f637 b93e
00000030: 0b58 af3e 5843 2abd 541d 75be 5e46 e93d
00000040: 4139 b13d 4447 b83e 1d14 eabe 93bf ef3e
00000050: f1f0 06bf 271f 3f3d 3312 21bd 70a5 24bf
00000060: 8dc5 b5be a1e1 c33e 16fb 6b3e 3d5d 993e
00000070: 571a 603e 3fb1 443e ed75 cb3e 7d50 203f
00000080: 036e 9cbd fcfc 863e 78d3 46be e49f 393f
00000090: e9c3 083e 6975 093d e876 2b3f b02d 74bd
000000a0: e4b4 723e edc8 8f3d 635b a8be 0493 903b
000000b0: c0e0 c0bd 51d3 043e 0417 d8be eceb 60bf
000000c0: dcc5 9ebd 84aa 24bd f3df 763c c45f 0dbe
000000d0: 8153 d43d a141 20bf 895b 813d 0975 883a
000000e0: 3146 5dbe 5208 353c d2df 263d 0c00 1b3f
000000f0: ae99 b63c f1ee 323e 9dc3 cfbe cd3d 633f
00000100: 2136 94be 0b3d 47bc 036f b73e dec4 73bf
00000110: f93b bd3e d20c 4dbf cfe7 cbbb 2d7d 7e3e
00000120: d580 96be da04 de3d c56c 083f b578 b93b
00000130: ded1 62be c9b5 1f3e e130 1f3e 9696 66bc
00000140: 4472 15be fc58 71be 5bb0 71bf 61f5 a8be
00000150: e8e5 d43d 917a 1b3f 5e73 c73e 92ef 63bf
00000160: 902c ebbd da59 ebbd 5206 0b3f 1ee3 64bc
00000170: 7573 88bf 97ee 98bd 97f4 043f f171 91be
00000180: b659 75be cdfa 8bbe b2a8 223e 5abb 19be
00000190: dc9e 91be 2ed0 8abd fe74 d23d 087e 5fbf
000001a0: ee65 a23d 79f4 293d 7aa4 963e a768 aabc
000001b0: 7d1f 173f d9b0 503e 4e77 0fbf e505 323e
000001c0: cc5c 843e f970 2f3e caa9 dd3d f396 dfbe
000001d0: 85e2 1a3e 0827 1dbe 317e 163e 7e8e 773d
000001e0: 221d c43e e9eb 41bd 50e3 fcbe fd0e e2bd
000001f0: d267 773e 33dc a1be e401 2d3e 23ff 103f
00000200: 4ef4 483f 0fd3 033f 3eb0 d43e 0bac cfbe
00000210: b14c 423d 96d0 3e3d a391 6cbe b52a 063e
00000220: ae84 6cbe 4543 3f3d 423e 813d 908d fe3a
00000230: 5464 f63d 538d 07bf 8ce2 283e 5d08 de3e
00000240: b39b d73e 5e64 a23c 0b07 4e3e f945 63bd
00000250: c3cd 103f 3006 433e d0d6 3ebe 4e8d bc3d
00000260: af23 f5bb 2cc8 f3bd 95d9 083e 2cc7 4a3f
00000270: 6464 8f3e fd9d bc3e 1738 17bf ebeb 153e
00000280: c27f 2fbe 7e1f cd3e dea1 003f 8648 20bf
00000290: 1328 34be 0c75 a23b 7554 aebe fa12 46be
000002a0: f00b 32bd 94a3 0e3f 742f 73bd 96cb 793c
000002b0: b90c fd3d 53d6 15bd 9a8b ab3e 4766 5ebf
000002c0: de47 c93e 881e 9a3e 3808 153e 8854 a6be
000002d0: f3e1 02bf 1f8d 33bf ccbf 18bf 5cf5 19be
000002e0: 5b8c 53be a9a2 69bf b2f7 3a3f c4cb 8c3e
000002f0: 4984 d5be c318 06bf 8844 133f 2454 37bf
00000300: 28bd 8abe 3ac8 703e 5c64 4dbf eb80 d53e
00000310: fa9a 51be 867f 67bd 6f8b 683e c3bc 503f
00000320: 39b6 01bf 7c98 ba3e e47e b43c cec9 1d3f
00000330: aa79 4e3f a482 d33e e20d 84bd fda4 fcbd
00000340: d423 d0be 4d25 69bf 3d8f bdbc bf7d 3cbf
00000350: 037d c1be 3da2 753d e051 37be a63f 223e
00000360: 2bb4 e73e 309f aebe 3548 5dbe 5454 91bf
00000370: 44d9 bdbe f07e f9be 2427 853e 5a3d 0a3e
00000380: c026 b0be 6502 19be 1d7e 8a3e ae58 c23e
00000390: 82fb 903e cf4c 7f3c 6e02 82bd 56aa 643f
000003a0: 2b53 fb3e b71f dcbd 44be 013e c17a 473e
000003b0: d248 ab3e 81ee 6c3f 6fb9 803c 7017 98be
000003c0: 7698 163e 2787 553c b133 57be 4b77 ce3c
000003d0: e3d3 b43e 9a61 70be 8dfc 4ebf b757 f0be
000003e0: 4a0a c3be 1a50 4abd 954a f5be 474c d8be
000003f0: c606 6d3e 3744 81bf 196b 543e 9aa3 69be
0.08048854 0.707773 0.07661408 0.7483062 0.42746857 -0.3881268 -0.397609 0.6485202
-0.18438917 0.050290704 0.2647711 0.36175507 0.3424686 -0.04156813 -0.23936969 0.113903746
0.086534984 0.3599187 -0.4571847 0.46825847 -0.527114 0.04666057 -0.039323997 -0.6431494
-0.35502282 0.3825808 0.23045 0.29953948 0.21885048 0.19208239 0.39738408 0.62622815
-0.076381706 0.26364887 -0.19416606 0.725096 0.13355984 0.033559237 0.6697831 -0.059613883
0.23701817 0.070207454 -0.32882223 0.004412057 -0.09417868 0.12971236 -0.4220506 -0.8785999
-0.077525824 -0.04020168 0.015068042 -0.13806063 0.103674896 -0.6260014 0.06316287 0.0010410856
-0.21608807 0.011049347 0.040740795 0.60546947 0.022290077 0.17473961 -0.4057893 0.88766176
-0.28947547 -0.01216055 0.35826883 -0.9522227 0.36959818 -0.8009769 -0.006222702 0.24852438
-0.29395166 0.10840769 0.5329097 0.0056601414 -0.2215037 0.1559669 0.1554599 -0.014073988
-0.1459437 -0.23569101 -0.9440972 -0.3299971 0.10395414 0.60733896 0.38955206 -0.8903743
-0.11483109 -0.11491747 0.5430652 -0.013970165 -1.0660235 -0.074673824 0.51935714 -0.28407243
-0.23960003 -0.27339783 0.15884665 -0.15012875 -0.28441513 -0.067779884 0.10276221 -0.87301683
0.07929598 0.041492913 0.2942236 -0.020801855 0.5903242 0.20379962 -0.5604142 0.17385061
0.25852048 0.1713294 0.108234 -0.43669853 0.15125473 -0.1534692 0.14696576 0.060438626
0.38303477 -0.047344122 -0.49392176 -0.11038015 0.24160698 -0.3161331 0.16895252 0.5663931
0.7849778 0.51493925 0.41540712 -0.40560946 0.04743642 0.04658564 -0.23102431 0.13102229
-0.23097488 0.046695013 0.06310703 0.0019420851 0.12030855 -0.5295002 0.16492671 0.43365756
0.42110977 0.01982325 0.20119874 -0.055486653 0.5656397 0.19045329 -0.18636632 0.09206639
-0.0074810605 -0.11903414 0.13364251 0.7921016 0.2800628 0.36839285 -0.5906996 0.14640777
-0.1713858 0.4006309 0.5024699 -0.6261066 -0.17593412 0.0049578007 -0.3404881 -0.19343176
-0.043468416 0.5571835 -0.059371427 0.015246293 0.12355942 -0.03658135 0.33504945 -0.8687481
0.39312643 0.30101418 0.14553916 -0.32486367 -0.5112602 -0.7013721 -0.5966766 -0.15035003
-0.2065901 -0.91263825 0.73034203 0.2749921 -0.41702488 -0.52381533 0.57526445 -0.71612763
-0.2709744 0.2351388 -0.8023126 0.4169992 -0.20469275 -0.0565181 0.2270944 0.8153803
-0.50668675 0.3644446 0.022033162 0.61636055 0.80654395 0.41310608 -0.064479604 -0.123361565
-0.40652335 -0.9107254 -0.02313959 -0.73629373 -0.3779069 0.059969176 -0.17902327 0.15844592
0.45254645 -0.34105825 -0.21609576 -1.135386 -0.37079823 -0.48729658 0.26006424 0.13499966
-0.34404564 -0.1494232 0.27049342 0.37958282 0.28316885 0.015582277 -0.0634812 0.8932241
0.4908689 -0.107482366 0.12670237 0.1948042 0.33453995 0.9255143 0.015713422 -0.2970538
0.14706597 0.013032711 -0.21015812 0.025203368 0.35317907 -0.23474732 -0.8085411 -0.4694192
-0.38093787 -0.049392797 -0.47908464 -0.42245695 0.23147115 -1.0098943 0.2074398 -0.22816315

bias f4 [6]
00000000: e8a2 c23d 082b c83d 9e5b 513e 2e39 c73d
00000010: 69c0 a73e 5132 723e
0.09503728 0.097738326 0.20445105 0.09727703 0.32763985 0.23652007
