neyronki/kallah_neyron_relu_42n.pt (torch, 6201 bytes, 4 tensors)

weight f4 [42, 14]
4.517102 0.29824814 -3.7095287 4.631197 -1.5185641 -0.79355085 -0.10467461 0.27352282
-0.109685615 0.25209293 0.32102263 0.36555856 0.22015925 0.06945597 0.2020976 0.098522335
0.18547525 -0.0784324 0.07157212 0.0581108 -0.20470154 -0.04335927 -0.25702366 -0.33915535
-0.10469109 -0.12419201 -0.066201806 -0.14869592 -0.23617429 -0.05736592 -0.0071092728 0.21094069
0.01782258 -0.11113564 -0.07637519 -0.25943616 -0.017466405 -0.21509111 -0.11110914 0.05952
-0.03968513 -0.19132173 3.9380462 3.227068 -2.1376934 -3.847754 0.91450006 1.9358379
-0.037255548 0.06457221 0.24786459 0.09357356 0.16996683 0.26137748 0.08514805 0.13710417
2.5635848 3.7705395 -0.60507685 5.0627913 -2.5868394 -2.3678434 0.14003906 0.13499387
-0.21434297 0.40148878 0.33469915 0.3008439 0.27858007 0.4132335 -2.4531665 0.124903284
1.022463 -3.9270198 2.2778814 2.4154627 -0.120444454 0.31867668 0.25656876 0.33765557
-0.08085188 -0.1714283 0.2576975 0.23335353 0.13571122 4.804764 -1.6441879 -2.2097926
-2.2809336 3.3650517 0.09628638 0.29669905 -0.05981345 0.084382474 0.3222835 0.021351479
0.16319601 0.20130622 -0.31679553 -0.22430779 0.29494184 0.019764218 0.20830041 -0.08048698
-0.4451328 -0.23911843 -0.015899433 0.08487149 -0.12811151 -0.2574839 0.0936957 -0.33558398
2.0360057 5.442105 0.05744888 0.4944639 -3.0940473 -2.272364 0.057387583 -0.02971497
-0.015732635 0.26356852 0.36420068 0.43798512 0.16015776 0.33255848 0.40526864 -3.1965837
5.3815837 0.5618007 -1.6659108 1.2058007 0.09379322 0.13797611 0.18432182 0.07733949
0.11555044 0.26853496 0.013436546 0.2009521 -0.72268367 2.436323 -0.78827494 -0.7463986
-1.7777954 -0.22797546 -0.5763244 -0.4183094 -0.10435967 -0.2222771 0.10450054 0.38199222
-0.5579882 -0.2528267 -1.7471443 -2.3228185 -3.848722 -0.538604 3.7554188 2.8735738
0.2098646 0.24958634 0.5155426 0.5160805 -0.13060844 -0.08465315 -0.16135833 -0.49878934
3.9737759 -0.9213438 -3.613167 4.1793013 -0.96522063 0.25349528 -0.01920948 -0.061084438
-0.14722832 0.25152278 -0.18590403 -0.07248747 0.14364329 0.27032942 3.0039518 -3.0922031
5.252673 1.7065467 -1.7179531 -1.1573368 0.10727973 0.18371339 0.3822163 0.2650671
0.26205415 0.29947028 0.09922967 0.20264892 5.175072 -2.4821012 3.6822357 -1.9680309
0.41677096 -2.0152993 0.34820315 0.009082477 0.15876588 0.06199884 0.33087626 0.19629315
0.14265707 0.16604047 0.010002637 1.0077603 2.6199086 0.73418325 0.20111084 0.4918658
-0.2606352 -0.07909099 -0.12094432 0.14279874 0.48763245 -0.7035153 0.88852084 0.6740575
1.2016469 -0.8798149 -0.13854314 0.111768104 -0.20805806 0.83825445 -0.64965224 -0.34133
-0.5772682 -0.9906535 -0.00083052355 0.07414896 -0.41795793 -0.20802614 -1.7021315 5.102373
-1.4583504 -3.6368737 1.1779708 1.5866197 0.19553578 0.17865081 0.22138725 0.15381344
0.43917406 0.6383657 0.41755956 0.15393777 -1.3676733 -2.425865 -0.36690253 4.9852962
00000000: 198c 9040 fbb3 983e eb68 6dc0 c432 9440
00000010: 4f60 c2bf 2626 4bbf a45f d6bd 2f0b 8c3e
00000020: daa2 e0bd 5312 813e 145d a43e 7e2a bb3e
00000030: 6d71 613e ee3e 8e3d acf2 4e3e 14c6 c93d
00000040: 39ed 3d3e 2ba1 a0bd 6794 923d 9705 6e3d
00000050: 489d 51be 7d99 31bd 9b98 83be c5a5 adbe
00000060: 4868 d6bd 6158 febd d094 87bd be43 18be
00000070: acd7 71be 87f8 6abd e7f4 e8bb d600 583e
00000080: a900 923c 159b e3bd 986a 9cbd d1d4 84be
00000090: b515 8fbc d840 5cbe 308d e3bd 3ecb 733d
000000a0: e08c 22bd d8e9 43be f308 7c40 4888 4e40
000000b0: f8cf 08c0 9a41 76c0 ad1c 6a3f 89c9 f73f
000000c0: 4699 18bd 6f3e 843d 37d0 7d3e 7fa3 bf3d
000000d0: c90b 2e3e 45d3 853e 1a62 ae3d 0965 0c3e
000000e0: c611 2440 8550 7140 51e6 1abf 6302 a240
000000f0: c78e 25c0 bf8a 17c0 6666 0f3e d53b 0a3e
00000100: b97c 5bbe f08f cd3e b05d ab3e 3608 9a3e
00000110: 0ca2 8e3e 5793 d33e ae00 1dc0 4bcd ff3d
00000120: 11e0 823f 4b54 7bc0 cfc8 1140 f196 1a40
00000130: 95ab f6bd 9729 a33e fb5c 833e 31e1 ac3e
00000140: ac95 a5bd e68a 2fbe edf0 833e 3af4 6e3e
00000150: e2f7 0a3e a0c0 9940 c074 d2bf 3e6d 0dc0
00000160: d1fa 11c0 025d 5740 cb31 c53d f0e8 973e
00000170: f3fe 74bd b8d0 ac3d 5802 a53e 4ce9 ae3c
00000180: db1c 273e 3823 4e3e 0633 a2be f1b0 65be
00000190: 9e02 973e 92e8 a13c b44c 553e 5cd6 a4bd
000001a0: 72e8 e3be 76db 74be 873f 82bc 1bd1 ad3d
000001b0: aa2f 03be eed4 83be 88e3 bf3d aad1 abbe
000001c0: eb4d 0240 b925 ae40 844f 6b3d 5f2a fd3e
000001d0: df04 46c0 696e 11c0 3e0f 6b3d cf6c f3bc
000001e0: bae1 80bc 74f2 863e 8378 ba3e 963f e03e
000001f0: 6500 243e 1b45 aa3e 5f7f cf3e d494 4cc0
00000200: ef35 ac40 2cd2 0f3f 913c d5bf ad57 9a3f
00000210: a916 c03d 9c49 0d3e dcbe 3c3e 2b64 9e3d
00000220: b6a5 ec3d 6a7d 893e f524 5c3c 63c6 4d3e
00000230: cc01 39bf b7ec 1b40 63cc 49bf fb13 3fbf
00000240: cd8e e3bf 6672 69be ff89 13bf a62c d6be
00000250: 86ba d5bd 9c9c 63be 6104 d63d 7c94 c33e
00000260: 51d8 0ebf 8072 81be 6da2 dfbf 0fa9 14c0
00000270: 7651 76c0 f4e1 09bf c858 7040 a2e8 3740
00000280: bfe6 563e 9093 7f3e 9afa 033f da1d 043f
00000290: 38be 05be a15e adbd 1e3b 25be 5161 ffbe
000002a0: 5852 7e40 30dd 6bbf 213e 67c0 d6bc 8540
000002b0: b318 77bf 22ca 813e 335d 9dbc ad33 7abd
000002c0: 05c3 16be 98c7 803e a05d 3ebe 5074 94bd
000002d0: 3a17 133e 9e68 8a3e bf40 4040 a8e6 45c0
000002e0: e615 a840 1f70 da3f e3e5 dbbf 9d23 94bf
000002f0: 7ab5 db3d 5d1f 3c3e dbb1 c33e e0b6 873e
00000300: f62b 863e 2b54 993e ed38 cb3d 3383 4f3e
00000310: 319a a540 bfda 1ec0 c0a9 6b40 70e8 fbbf
00000320: 0163 d53e aafa 00c0 af47 b23e abce 143c
00000330: 8693 223e 7ff2 7d3d 9d68 a93e 1201 493e
00000340: b214 123e 8306 2a3e 1ae2 233c 4afe 803f
00000350: 95ac 2740 6ff3 3b3f 00f0 4d3e d6d5 fb3e
00000360: fa71 85be 75fa a1bd a8b1 f7bd d539 123e
00000370: f6aa f93e 9419 34bf 1a76 633f 088f 2c3f
00000380: 91cf 993f 8d3b 61bf 41de 0dbe ade6 e43d
00000390: 2c0d 55be d897 563f 9c4f 26bf cec2 aebe
000003a0: d9c7 13bf 789b 7dbf 7eb7 59ba 69db 973d
000003b0: 95fe d5be ce04 55be 72df d9bf a446 a340
000003c0: 3aab babf 8ac2 68c0 bfc7 963f 5b16 cb3f
000003d0: 883a 483e 3df0 363e 57b3 623e 4581 1d3e
000003e0: 6cdb e03e ef6b 233f 5eca d53e dda1 1d3e
000003f0: eb0f afbf 5f41 1bc0 a6da bbbe 8c87 9f40

bias f4 [42]
0.22570246 -0.28026208 0.101970084 -0.033467904 0.091354825 0.08887149 -0.22766635 -0.27471986
0.32840934 -0.19309714 -0.63753545 -0.13672033 0.10780238 0.17904975 -0.014812512 0.054865327
-0.41515276 -0.05951034 -0.11301998 0.06454232 -0.10087777 -0.010514209 -0.2542934 -0.2936378
0.115143925 0.13199215 0.40990326 0.07533516 -0.10904104 0.01393736 0.29208907 0.13509688
-0.26235726 -0.23158477 -1.0033386 -0.40808502 0.101049066 0.08201929 -0.037413646 -0.10297035
0.20278665 0.3497279
00000000: 8c1e 673e 837e 8fbe b1d5 d03d a415 09bd
00000010: 3d18 bb3d 4102 b63d 5e21 69be 15a8 8cbe
00000020: 4525 a83e 42bb 45be 8635 23bf 6a00 0cbe
00000030: 7fc7 dc3d d158 373e 2eb0 72bc 77ba 603d
00000040: e78e d4be 1dc1 73bd 0577 e7bd c42e 843d
00000050: 0199 cebd ca43 2cbc bf32 82be b257 96be
00000060: 94d0 eb3d f328 073e d7de d13e 5249 9a3d
00000070: e950 dfbd 8659 643c b38c 953e d656 0a3e
00000080: b153 86be 8f24 6dbe 666d 80bf 85f0 d0be
00000090: d0f2 ce3d bbf9 a73d 0d3f 19bd 1ee2 d2bd
000000a0: 4ea7 4f3e 890f b33e

weight f4 [6, 42]
1.1537719 0.1168361 -0.12319905 1.20704 1.1135033 -1.0352556 0.22211528 0.07116976
1.245561 0.16871166 0.2777406 -0.64539427 0.77230424 0.8921928 1.6849028 0.28356242
0.42902184 -0.0059717605 -0.44007593 -1.9743211 2.8176687 -1.8987991 0.6558085 0.8024151
0.14009218 -0.51627105 -2.0545065 0.7424065 -0.46857873 1.1455549 -0.25044343 0.049894977
-0.8923428 0.088650934 0.7342057 1.8702741 0.0607908 0.33296582 -0.9198502 -0.5276085
1.7058612 -0.07988802 0.50721467 0.012383139 -0.003320519 1.0909511 1.2585269 0.7451018
1.3344748 -0.112693064 1.5868819 -1.4262983 0.8885877 -0.016806802 0.20215674 -1.2778269
-1.4740274 -0.022879578 -0.14793612 1.7643224 0.22955859 0.3122997 -1.169728 0.48557863
-1.3181082 -0.3603933 -0.032786973 -1.0222461 1.3363876 -0.95874554 1.6815006 1.3319716
1.3950486 0.14848745 0.223351 0.39476317 0.7636357 0.2199094 0.00718008 -0.79934376
1.0476599 1.288067 -0.90533406 -0.57746387 -1.3782206 0.06960958 -0.106986895 -1.2751989
-0.11227229 0.75662565 0.108001396 0.25206438 0.3228587 1.3906261 -0.14822383 -0.78171736
-1.2678772 1.224544 0.79608226 1.1206903 0.041719638 0.53387344 0.366236 1.3597165
-0.1041285 2.5188718 -0.34419438 -0.43381676 0.13432172 1.7849785 1.5215749 -0.89618444
0.117486365 0.84105784 -0.6188491 0.039295778 1.46354 -1.0623349 -0.062045738 0.5672364
0.031614855 1.5909454 -1.679956 1.11994 0.7260216 -0.6919946 1.4073539 0.06442775
0.030106006 -2.5084245 1.1222475 -0.8732481 -1.2605093 0.004429499 -0.15455644 0.37216344
-0.9934902 0.6358086 1.2248205 0.5106294 -0.62098664 -0.17104542 -0.8385142 -1.2310857
1.803325 1.4952607 0.28751442 0.49111503 -0.84380215 1.3060757 0.12926736 -0.06817751
1.2325727 0.5707664 0.25671798 -0.0654395 0.9995425 0.022473332 0.07445334 0.58537614
-1.1189173 -0.5070955 0.032047953 -0.4468538 1.292236 -0.40576386 -0.52297705 1.3944309
-0.718069 0.143264 -0.020172996 1.1687785 -1.7848414 1.3822318 -0.18460606 0.032685444
-0.92882264 -0.4764738 0.22066651 1.6995676 -0.32849112 -0.5165563 0.3400281 -1.3576312
-0.36282408 1.2190664 -1.5701294 -0.29189742 -0.93401915 0.32223365 0.83384347 -0.46564615
-0.04636609 1.5590174 -0.5040866 0.9104196 -1.0421417 -0.16213824 0.767369 -0.041685153
0.41702607 0.6945491 0.9273365 -1.5868516 -0.0018545343 -0.8102421 0.6937102 1.3928396
1.5911885 0.5822896 -0.2414985 -0.03336662 0.061895303 0.7678527 -1.2845372 0.69381326
1.0335623 -0.018810112 -0.85909855 0.42579305 -0.44299477 0.84392667 0.31960464 0.094284594
0.0007800759 0.012582601 0.24598671 0.44206426 0.8975184 1.1208105 -0.578236 -0.6906358
1.2448013 -0.63946617 0.07276661 -0.05175063 -0.44960117 1.3200023 0.94849294 -2.2472787
-1.3245183 0.021085475 -0.35976002 1.2369025 -0.2240463 -0.48559576 0.12031674 1.336842
0.4251379 -0.97764987 -1.2169403 -0.31042048
00000000: ccae 933f c447 ef3d c94f fcbd 4980 9a3f
00000010: 4787 8e3f 4183 84bf 3072 633e 73c1 913d
00000020: 8b6e 9f3f c0c2 2c3e 0434 8e3e 8f38 25bf
00000030: bbb5 453f bf66 643f e5aa d73f 182f 913e
00000040: c0a8 db3e c2ae c3bb a251 e1be 8eb6 fcbf
00000050: af54 3440 d90b f3bf 11e3 273f 136b 4d3f
00000060: 5374 0f3e 572a 04bf 097d 03c0 5a0e 3e3f
00000070: 8de9 efbe 8ba1 923f 1f3a 80be ad5e 4c3d
00000080: 9470 64bf 9f8e b53d e8f4 3b3f 2465 ef3f
00000090: c6ff 783d 7f7a aa3e 4d7b 6bbf 5a11 07bf
000000a0: a959 da3f 559c a3bd d2d8 013f a6e2 4a3c
000000b0: 119d 59bb 49a4 8b3f 6917 a13f febe 3e3f
000000c0: 12d0 aa3f 9fcb e6bd f21e cb3f f190 b6bf
000000d0: 7c7a 633f 6bae 89bc 2d02 4f3e d58f a3bf
000000e0: eeac bcbf f46d bbbc 917c 17be 51d5 e13f
000000f0: 6811 6b3e bfe5 9f3e a6b9 95bf c39d f83e
00000100: c5b7 a8bf 7885 b8be a24b 06bd f6d8 82bf
00000110: c00e ab3f 5970 75bf 693b d73f 0c7e aa3f
00000120: f490 b23f 180d 183e 20b6 643e 661e ca3e
00000130: a17d 433f ee2f 613e e046 eb3b cba1 4cbf
00000140: b819 863f 61df a43f f9c3 67bf acd4 13bf
00000150: 8869 b0bf 788f 8e3d f21b dbbd b839 a3bf
00000160: 04ef e5bd 38b2 413f d62f dd3d 950e 813e
00000170: bc4d a53e 0900 b23f fdc7 17be a11e 48bf
00000180: cd49 a2bf dcbd 9c3f 0ccc 4b3f c872 8f3f
00000190: 36e2 2a3d eeab 083f 4983 bb3e 310b ae3f
000001a0: 5341 d5bd 3235 2140 3f3a b0be 3b1d debe
000001b0: a28b 093e 2d7a e43f f7c2 c23f 586c 65bf
000001c0: b19c f03d 914f 573f e56c 1ebf 9cf4 203d
000001d0: 4755 bb3f 97fa 87bf ac23 7ebd 6836 113f
000001e0: 947e 013d 19a4 cb3f cc08 d7bf 325a 8f3f
000001f0: 8ddc 393f 8f26 31bf 2c24 b43f b2f2 833d
00000200: dfa0 f63c 078a 20c0 cea5 8f3f 308d 5fbf
00000210: 5e58 a1bf 5525 913b 0b44 1ebe 358c be3e
00000220: 6055 7ebf 5ac4 223f ebc6 9c3f 9cb8 023f
00000230: fbf8 1ebf 8826 2fbe dea8 56bf 3794 9dbf
00000240: 5bd3 e63f b464 bf3f 1735 933e 6e73 fb3e
00000250: 6b03 58bf 7d2d a73f aa5e 043e a6a0 8bbd
00000260: f1c4 9d3f bf1d 123f 8a70 833e 2505 86bd
00000270: 04e2 7f3f fe19 b83c fe7a 983d 36db 153f
00000280: af38 8fbf 03d1 01bf b744 033d 05ca e4be
00000290: fd67 a53f 48c0 cfbe d3e1 05bf b67c b23f
000002a0: 5fd3 37bf ccb3 123e d741 a5bc 899a 953f
000002b0: af75 e4bf f9ec b03f 5f09 3dbe 2ce1 053d
000002c0: 52c7 6dbf 60f4 f3be 67f6 613e 6e8b d93f
000002d0: fd2f a8be 093d 04bf 2a18 ae3e dcc6 adbf
000002e0: 14c4 b9be 5e0a 9c3f 00fa c8bf 9473 95be
000002f0: e11b 6fbf cffb a43e c476 553f 2c69 eebe
00000300: 5fea 3dbd e28d c73f d20b 01bf 4211 693f
00000310: e664 85bf 9107 26be 4b72 443f 0dbe 2abd
00000320: 7184 d53e f8cd 313f ed65 6d3f f41d cbbf
00000330: d813 f3ba 076c 4fbf fe96 313f 9148 b23f
00000340: 11ac cb3f ee10 153f 624b 77be 70ab 08bd
00000350: ee85 7d3d ff91 443f b76b a4bf bf9d 313f
00000360: c54b 843f aa17 9abc e2ed 5bbf 8c01 da3e
00000370: 36d0 e2be 940b 583f 38a3 a33e 4818 c13d
00000380: 027e 4c3a 4127 4e3c f1e3 7b3e 3f56 e23e
00000390: c4c3 653f b876 8f3f 4607 14bf 82cd 30bf
000003a0: a655 9f3f 0eb4 23bf a906 953d 78f8 53bd
000003b0: 2032 e6be d6f5 a83f 6fd0 723f 6ad3 0fc0
000003c0: d189 a9bf 72bb ac3c 7732 b8be d252 9e3f
000003d0: 656c 65be 02a0 f8be 9f68 f63d a31d ab3f
000003e0: adab d93e 4347 7abf b3c4 9bbf 6fef 9ebe

bias f4 [6]
0.13585608 0.28813988 0.51124805 0.4198077 0.6968961 0.2907058
00000000: db1d 0b3e 1287 933e 27e1 023f 09f1 d63e
00000010: c867 323f 64d7 943e
