neyronki/kallah_neyron_relu_50n.pt (torch, 6201 bytes, 4 tensors)

weight f4 [42, 14]
00000000: 27fd d940 1377 2c3f 9a56 a2c0 f0ff b340
00000010: fe5a 25c0 0e57 bfbf 9ece 2ebe bf3c c93d
00000020: 8333 1a3e bd21 ee3d 167b 023f 3700 e23d
00000030: 32b9 0e3f a8f7 993d acf2 4e3e 14c6 c93d
00000040: 39ed 3d3e 2ba1 a0bd 6794 923d 9705 6e3d
00000050: 489d 51be 7d99 31bd 9b98 83be c5a5 adbe
00000060: 4868 d6bd 6158 febd d094 87bd be43 18be
00000070: 6a2f 89be ab8a b6bd 743b 1fbd 9d79 373e
00000080: 0572 64bc bf54 12be ff78 ddbd 6818 95be
00000090: b5a7 49bd d840 5cbe d04d 12be c15c e33c
000000a0: d654 92bd 0771 64be 201e 9340 dbb9 9240
000000b0: acf0 73c0 eae4 a2c0 0103 ed3f 0318 1f40
000000c0: 55ec 393e e0de f03d 2c12 ad3c b132 423e
000000d0: 05ed 703e c15b 4c3e 2a41 9d3e 57a9 8b3d
000000e0: 2ba4 8040 29b0 8940 cfed 06bf a19f b340
000000f0: aabc 9ac0 0a3f 69c0 d88e 263e 6519 873e
00000100: 3ea5 8d3d ae09 ef3d 50f1 023f 3dc8 83be
00000110: fd2c f3bd c8b3 3cbe c008 4cc0 ba80 8a3f
00000120: 5f1a 9e3f 8700 8ec0 f0fb 5540 6d48 5d40
00000130: 634f a8be d08f b43c bc8a 1bbf 60db 0ebe
00000140: be4b 24be fc02 8abe b972 b43e 359b a03e
00000150: b189 943d 07d8 d940 660f 1dc0 12a6 85c0
00000160: f7de 76c0 d791 8b40 7e41 db3d f3cd a83e
00000170: 57ad 063b 3f80 993e 32d4 ae3e df9b 1abe
00000180: 91fa 4a3e c9d2 093e 0633 a2be 08b9 83be
00000190: 385f 863e e840 58bc 2825 343e bcad ecbd
000001a0: 357c f4be 4f4e 8bbe 3a83 44bd c958 583d
000001b0: 456f 24be 8418 94be 72a7 7c3d aad1 abbe
000001c0: 9c37 6640 a579 de40 b6a4 e43e 4156 4bbf
000001d0: 4643 9cc0 b758 75c0 402a 623e 5146 983e
000001e0: 4d25 13be 7dec db3e 3d64 293e 191f da3e
000001f0: c131 aa3d d354 5ebd 3dcb c4be b998 92c0
00000200: 8ec6 db40 3398 8d3f fa53 29c0 5c39 ba3f
00000210: 004c 0fbd cd13 013e 5ae8 2b3c 9e84 73be
00000220: e7e7 f53e b766 1c3e 9e96 06be 9a33 0c3c
00000230: 3747 e7be 9b87 1c40 0008 86bf 3035 92bf
00000240: 72d9 06c0 c81c 20bf ccf4 eebe e354 f8bd
00000250: ba7d b6be 0ba9 09bf a149 6cbe c975 0a3f
00000260: ed21 fcbe 7b9e cdbe 95dd 25c0 b9d6 d7bf
00000270: 9892 acc0 84e0 323f fbf5 ce40 52ef a540
00000280: cd32 d63e 0c05 db3e b8df ab3e db68 913e
00000290: dbde e83b 5dcc f03d 2223 9e3e 3c99 ab3e
000002a0: 5f31 bf40 ceee bdbf d32b a9c0 f5ee ac40
000002b0: e54d a9bf 7125 a5be 1556 d93c 8157 febc
000002c0: f6eb 6c3e 35ca 9c3c 385e 2bbe 9fc4 19be
000002d0: 08ab 9f3e b3bc 153f 79af 8640 70c1 8cc0
000002e0: bb1f d940 49fb 1440 2205 2fc0 f229 0ac0
000002f0: 20c8 3bbd 8565 b3bd 2e9c 3d3f a80a c63e
00000300: ba7c 103f 2887 e23e 4e22 a63e 87e7 0d3e
00000310: f7d9 e140 1d6e 8fc0 0d29 9440 be13 3dc0
00000320: a7a1 4bbe 9c3a 7ec0 792f ed3e bed6 713e
00000330: dd27 8c3d 600f b03e 5bdf 5abd 27c4 4d3e
00000340: 9b77 5bbd c0f0 273f 4df0 72bf 0e94 b43f
00000350: 00d7 3040 ccce 223f e584 6e3d 45b0 183f
00000360: 2d59 c5bf 454d b9bf 0427 e8bd d76e d5be
00000370: 70a5 c23e b3a2 27bf 3ca0 3c3f cc96 acbd
00000380: 5f53 883f 9c01 7bbf 865b 87be 5eb9 05bd
00000390: 0219 b3be 58b0 333f b608 49bf 9a2f f2be
000003a0: f848 20bf 9690 8ebf 49db 3ebe 7d42 f7bc
000003b0: a1d2 e0be 2b20 a4be a616 24c0 980e e940
000003c0: 96bd ebbf 9350 92c0 be1e 2d40 c32f 3240
000003d0: c2f3 983e d614 d83d 9762 c23d b69d 783e
000003e0: 93ad be3e ab8a 193f 43b4 113f ee9d 783e
000003f0: 4aa6 bfbf f472 55c0 ccf5 363f 1811 c540
6.8121524 0.6736919 -5.0730715 5.6249924 -2.5836787 -1.4948442 -0.17071006 0.098260395
0.15058713 0.11627529 0.50969064 0.11035197 0.55751336 0.0751794 0.2020976 0.098522335
0.18547525 -0.0784324 0.07157212 0.0581108 -0.20470154 -0.04335927 -0.25702366 -0.33915535
-0.10469109 -0.12419201 -0.066201806 -0.14869592 -0.26793987 -0.089131676 -0.03887506 0.17917486
-0.0139432 -0.1429014 -0.10814094 -0.29120183 -0.049232204 -0.21509111 -0.14287496 0.02775419
-0.071450874 -0.22308742 4.5974274 4.5851874 -3.8115644 -5.0904436 1.8516542 2.4858406
0.1815656 0.1176126 0.02112683 0.1896465 0.23527916 0.19956876 0.3071378 0.068194084
4.02004 4.302754 -0.5270662 5.613236 -4.8355303 -3.6444726 0.16265428 0.26386562
0.06916283 0.11671768 0.51149464 -0.25738707 -0.11873815 -0.18427956 -3.188034 1.0820534
1.2351798 -4.4375644 3.343502 3.4575455 -0.32873067 0.022041231 -0.60758567 -0.13950872
-0.16044518 -0.26955402 0.35243776 0.31368414 0.07252825 6.8076205 -2.4540648 -4.1765223
-3.8573587 4.3615527 0.10705851 0.32969627 0.0020550096 0.29980657 0.34146267 -0.15098523
0.19822146 0.13459314 -0.31679553 -0.25727105 0.2624452 -0.013199069 0.17592299 -0.11556575
-0.47751012 -0.27208182 -0.04797671 0.052819047 -0.16058071 -0.28924954 0.061683126 -0.33558398
3.5971441 6.952349 0.44656914 -0.7942849 -4.883212 -3.8335397 0.2208643 0.29741147
-0.14369698 0.42953864 0.16542144 0.4260185 0.08310271 -0.054280113 -0.38436309 -4.581143
6.8679876 1.1062073 -2.6457505 1.4548755 -0.03498459 0.1260521 0.010492409 -0.23781058
0.4802849 0.15273558 -0.13143393 0.008557225 -0.4517152 2.4457767 -1.0471191 -1.1422482
-2.1070218 -0.62543917 -0.4667114 -0.12125566 -0.35642797 -0.53773564 -0.23074962 0.54085976
-0.49244633 -0.40159974 -2.5916493 -1.6862403 -5.3928947 0.69873834 6.467527 5.185464
0.41835633 0.42777288 0.3356912 0.2840031 0.0071066446 0.11757729 0.3088618 0.33515346
5.9747767 -1.4838502 -5.2865996 5.4041696 -1.3226897 -0.32255128 0.026530305 -0.031047584
0.23136887 0.019139389 -0.1673516 -0.15016411 0.31185174 0.5849106 4.20892 -4.398613
6.7851233 2.3278372 -2.7346883 -2.1588101 -0.04584515 -0.08759598 0.74066436 0.38680005
0.5644032 0.4424374 0.32448047 0.13857852 7.057857 -4.4821916 4.630011 -2.95433
-0.19885884 -3.9723272 0.4632528 0.23617074 0.06843541 0.3438673 -0.053435665 0.20094357
-0.05358086 0.6560173 -0.9489792 1.4107683 2.7631226 0.63596797 0.058232207 0.59643966
-1.5417839 -1.4476706 -0.11335567 -0.41686127 0.38016844 -0.65482634 0.73682 -0.084272
1.0650443 -0.9804933 -0.26437014 -0.032647483 -0.34980017 0.70190954 -0.78528917 -0.47301942
-0.6261134 -1.1137874 -0.18638338 -0.030183071 -0.43910697 -0.32055792 -2.5638824 7.2830315
-1.8417232 -4.5723357 2.7050014 2.7841651 0.29873472 0.10550849 0.09491461 0.24278912
0.37241802 0.59977216 0.5691568 0.24278995 -1.4972622 -3.3351412 0.71468806 6.1583366

bias f4 [42]
00000000: 2463 663e 837e 8fbe 53c7 8f3d c3ca b03d
00000010: ecad 883d de04 92be 6b30 ddbd ed9d 9ebe
00000020: b2f8 d83e 3fa1 d8be 945b 30bf feda 563d
00000030: 5b75 4a3e c947 683d bf68 99bc 79f9 18bf
00000040: ff08 0dbf 0061 bf3c 5ad9 16bc b480 123e
00000050: 1ed0 5d3e db90 85bd 66af 81be be06 c6be
00000060: 94d0 eb3d e2d8 c03d e421 24be 91c0 89bd
00000070: 12e9 d7bc 565d 9bbf b0eb e03e d656 0a3e
00000080: 6b1d 91be 5444 6ebe 0561 63bf f00b b2bf
00000090: d0f2 ce3d 8450 923e edc6 f8bb dbf2 53bc
000000a0: c0c3 043e 58ca fa3e
0.22498757 -0.28026208 0.0702044 0.08632424 0.06673798 -0.28519338 -0.108002506 -0.30979863
0.4237724 -0.4231052 -0.6888974 0.05245494 0.1977133 0.056709085 -0.018726705 -0.59755665
-0.5509185 0.023361683 -0.009207094 0.14306909 0.21661422 -0.065217696 -0.2532913 -0.3867702
0.115143925 0.09416367 -0.16028553 -0.06726182 -0.026356254 -1.2137859 0.43929815 0.13509688
-0.28342757 -0.23268253 -0.88819915 -1.3909893 0.101049066 0.28577054 -0.007592073 -0.012936319
0.12965298 0.489825

weight f4 [6, 42]
00000000: e567 d53f c447 ef3d c94f fcbd 8fa3 c23f
00000010: 54d8 cb3f 3340 94bf b4b8 c93e 73c1 913d
00000020: 335f 0240 9143 0e3e e7a1 ad3e cd78 7cbf
00000030: 1b9a 9e3f e622 b93f e67d 1540 0715 4b40
00000040: 2e15 943e ceea 3ebd 1bb6 83bf 7d5e 4ac0
00000050: 045d 8640 6cb7 52c0 0b32 9a3f e59d c33f
00000060: 5374 0f3e f61e 42bf a7ad 8d3f 05be 453f
00000070: 3e49 28bf b207 893f f665 b1bd ad5e 4c3d
00000080: eac6 10be 3c29 93be c22c 703f 7de2 bb3f
00000090: c6ff 783d 5828 eb3e 8e6b e2bf b786 86be
000000a0: 3aff 2e40 832e 233d 102f 253f a6e2 4a3c
000000b0: 119d 59bb c0e5 e13f 7f70 d53f 63e7 ab3f
000000c0: 486e 2240 9fcb e6bd c239 2740 90f9 fdbf
000000d0: 9cb1 7a3f 7f3c f63e 5b50 123c bfd5 aabf
000000e0: 8a94 a4bf f85c 18bf 917c 17be 446e 2a40
000000f0: 406e 8f3d 5f16 c43e 0a85 a0bf 55e2 843f
00000100: 8739 b0bf 691a c4bf a24b 06bd e23f dbbf
00000110: fe7a 683f 4b90 a1bf 83e3 2440 4e0c ab3f
00000120: 0167 ca3f 180d 183e 33c9 b8be 9a97 2e3f
00000130: 5f43 213e 2554 0d3f e046 eb3b b3db 7bbe
00000140: 54a5 983f 6a3d 113f 0d01 69bf 4932 efbf
00000150: 7f39 e7bf 788f 8e3d 8e0d 9abd 0101 12c0
00000160: aa4c 383e 2120 0a3f 01b1 15bf 597a 553e
00000170: ca95 033f b5a0 ec3f 24fb f5be 2ad6 93bf
00000180: 4564 e6bf 4702 f73f d05d bf3f 635f 693f
00000190: 36e2 2a3d d03d 8c3d 6bbc 5f3f 0556 e33f
000001a0: 1676 713e fbae 6940 99d8 febe 58be f9be
000001b0: a28b 093e 0c0e 2540 ae6d 4240 d5e1 cebf
000001c0: 489c c5bd 7a21 383f ebac 56bf 9cf4 203d
000001d0: 99e9 0140 7dc2 fabf 2377 633e 65c2 f33e
000001e0: 947e 013d e2dc 0e40 d4e4 e6bf 98bc c83f
000001f0: b4a7 aa3f fa6d f9bd 1950 1340 b2f2 833d
00000200: 7d8c d9ba 891f 2fc0 20c8 f53f 3e8f e6bf
00000210: 1d40 b7bf 5525 913b 1bee 2fbe 20b1 853f
00000220: 4d9e 36bf e399 6e3f 6f7a 0340 b4c8 ae3f
00000230: ea26 f73d a757 7cbe 4687 4ebf d8be a4bf
00000240: 4840 2040 f211 f23f aa6f 003f cf49 843e
00000250: b42b bdbf 395a ae3e aa5e 043e 4cb6 0cbe
00000260: 5e79 443f 7399 bb3f d30a 5d3e f3d1 fa3e
00000270: d672 913f fe19 b83c f390 2fbf 35a3 803f
00000280: af38 8fbf 41ca 8ebe b744 033d 0b01 d0bd
00000290: d0dc 9f3f 4489 cabf c3fd 1abf fce5 f23f
000002a0: 0219 0dbf ccb3 123e d741 a5bc f3a7 9d3f
000002b0: 2640 f4bf c25e d13f 3b71 1dbf 2a36 9c3d
000002c0: f27a a8bf 3658 3fbf 9dbc 123e e70e 2c40
000002d0: c6f8 dc3e 978c bdbf dd2f 913e c01b d6bf
000002e0: 7306 9bbe ae02 d53f 2905 e0bf 570c 3e3e
000002f0: 8798 b9bf c9fa 6c3f b298 3a3f 8b34 8a3f
00000300: 5fea 3dbd da1a f93f d3b6 b9bf ddf6 823f
00000310: a0b0 12c0 c432 0abd 23e6 f73f 0dbe 2abd
00000320: 10aa 833f 4e50 9e3f f879 8b3f b9f5 ccbf
00000330: d813 f3ba e661 e0bf 1fa5 0140 9c3f 1040
00000340: ec43 fe3f ec6d e13f ea38 a0be 70ab 08bd
00000350: ee85 7d3d 5935 c63f 7c16 04c0 cef8 823f
00000360: 5c6b f13f aa17 9abc e32c 9abf 485a 893f
00000370: 8e96 27bf 7190 aa3f 4e75 fb3d fb15 b53e
00000380: 1e5b 2a3e a948 59bf ac45 b53e eba9 903f
00000390: e349 b83f a9b2 db3f e961 c9bf 24d5 91bf
000003a0: f197 f33f 05c9 07bf a906 953d 44b8 853e
000003b0: 7f9a 57bf 413b 0340 099a d33f e710 0ec0
000003c0: 8c82 04c0 72bb ac3c 9ddf f0bf 8e4a ef3f
000003d0: 1c5a 37be 2504 d7bd 9f68 f63d d8ab 1540
000003e0: 7ea6 073e 72d5 e6bf b141 08c0 71e5 edbe
1.6672331 0.1168361 -0.12319905 1.5206164 1.5925393 -1.1582092 0.3939873 0.07116976
2.0370605 0.13892962 0.33912584 -0.9862183 1.2390779 1.4463775 2.3358092 3.1731584
0.2892241 -0.046610646 -1.0289949 -3.162017 4.1988544 -3.2924452 1.2046522 1.528256
0.14009218 -0.7582849 1.106862 0.7724307 -0.6573676 1.0705473 -0.08662026 0.049894977
-0.1413838 -0.28742397 0.93818295 1.4678494 0.0607908 0.45929217 -1.7689073 -0.26274654
2.7343278 0.03983928 0.64524937 0.012383139 -0.003320519 1.7648239 1.6674956 1.3429989
2.537981 -0.112693064 2.6129003 -1.9841785 0.9792726 0.4809303 0.008930291 -1.334648
-1.285783 -0.5951686 -0.14793612 2.66298 0.070034504 0.38298318 -1.25406 1.0381571
-1.3767556 -1.532056 -0.032786973 -1.712887 0.9081267 -1.262216 2.5763862 1.336313
1.5812684 0.14848745 -0.36091003 0.68200076 0.15748356 0.5520652 0.00718008 -0.24595527
1.1925454 0.56734335 -0.9101723 -1.8687221 -1.8064421 0.06960958 -0.075221166 -2.2813113
0.17997995 0.53955275 -0.5847321 0.20847453 0.51400435 1.8486544 -0.48043168 -1.1549733
-1.799935 1.929757 1.4950504 0.91161174 0.041719638 0.06847727 0.8739688 1.7760626
0.23580202 3.651305 -0.49774626 -0.48778033 0.13432172 2.5789824 3.0379443 -1.6162668
-0.09648949 0.7192608 -0.838576 0.039295778 2.0298827 -1.9590603 0.22213416 0.4760925
0.031614855 2.2322316 -1.8038583 1.5682554 1.3332429 -0.121791795 2.3017638 0.06442775
-0.0016597655 -2.7362998 1.9201698 -1.8012464 -1.4316441 0.004429499 -0.17180674 1.0444679
-0.713353 0.9320356 2.0543478 1.3655 0.12067969 -0.24642812 -0.8067516 -1.2870741
2.5039234 1.8911726 0.50170386 0.2583756 -1.4778962 0.3405321 0.12926736 -0.13741416
0.7674769 1.4656204 0.2158616 0.48988304 1.136317 0.022473332 -0.6858055 1.0049807
-1.1189173 -0.27888682 0.032047953 -0.10156449 1.2489262 -1.582314 -0.6054346 1.8976436
-0.55116284 0.143264 -0.020172996 1.2316879 -1.9082077 1.6357043 -0.615009 0.076275185
-1.316252 -0.74743974 0.14329763 2.6884096 0.4315855 -1.480853 0.2835683 -1.6727219
-0.30278358 1.6641443 -1.7501575 0.18559395 -1.4499673 0.9257017 0.72889245 1.0797285
-0.04636609 1.946132 -1.4508919 1.0231587 -2.2920303 -0.03373982 1.9367107 -0.041685153
1.0286274 1.2368257 1.0896597 -1.6012489 -0.0018545343 -1.7529876 2.0257032 2.2538824
1.9864478 1.761167 -0.31293422 -0.03336662 0.061895303 1.548503 -2.0638723 1.0232179
1.8860888 -0.018810112 -1.2044948 1.0730677 -0.65464103 1.332533 0.122782335 0.35368332
0.16636321 -0.84876496 0.35404718 1.1301855 1.4397548 1.7163898 -1.5733005 -1.139317
1.9030744 -0.53041106 0.07276661 0.26117146 -0.8422012 2.0504916 1.6531383 -2.2197816
-2.070468 0.021085475 -1.8818241 1.8694627 -0.17905468 -0.104988374 0.12031674 2.3386135
0.13247105 -1.8033888 -2.1290095 -0.46464112

bias f4 [6]
00000000: 26bb e43e 4c2c 483f ea97 3e3f bebc 863f
00000010: 5553 913f b2c2 1c3f
0.44674033 0.7819259 0.7445055 1.052635 1.1353556 0.6123458
