neyronki/model_edlenko_sigmoid.pt (torch, 7475 bytes, 4 tensors)

weight f4 [57, 14]
-0.65944743 0.062594615 0.8323408 2.1100214 -1.3403682 -1.6675285 -0.0008172616 -0.0120878555
-0.032662336 0.04349081 -0.0060921214 0.042033043 -0.041851513 0.029337801 -1.768681 0.18210006
-0.4045949 -1.1047937 1.1551483 2.244636 -0.005281492 -0.023973662 0.10577565 -0.0029648417
-0.0075993696 0.006476813 -0.010580105 -0.04397744 1.3178054 -2.012547 -1.0250446 0.24078076
0.828361 1.8321226 0.0070212786 -0.010458189 -0.06938827 0.032925207 0.055329144 0.034488164
-0.0583304 0.0037201124 -0.2701224 -0.93395287 0.08270512 -1.0049479 -0.8932379 3.2542634
-0.0075960946 0.0014764857 0.0074334387 -0.020045254 0.03537452 0.099782564 0.06679456 -0.06614507
-0.39620104 -0.23376003 -0.28089195 -0.25867638 -0.16363065 -0.21906376 -0.4421619 -0.2975637
0.0007231617 0.004081949 -0.21644454 -0.1711451 -0.28591344 -0.2014872 1.529571 0.5830437
-3.1142228 -0.00069244567 0.25164592 0.7619971 0.010620632 0.0309709 -0.05128333 0.0077606197
-0.041239236 0.08792209 -0.051041473 -0.08099766 -0.24412979 0.38939396 1.9048892 -1.1583877
-2.0863755 0.63840246 -0.052756306 0.07539311 0.09548458 -0.038173817 0.08992039 0.015587225
0.020790607 -0.03840064 -0.9632015 0.13544926 -0.22744665 2.4038289 -0.5335641 -0.45613155
-0.23923263 0.1176994 -0.016228015 0.18195401 0.029630283 -0.17138965 -0.04536564 0.10079822
2.9583945 -1.4943552 -1.3717657 0.14675976 0.26725915 0.15315844 0.0112735955 -0.0076545104
-0.070129335 0.07143993 0.016323978 0.035866402 -0.07626855 -0.07989847 -0.5992983 -0.96928453
1.7689363 1.4185152 -1.3827716 -0.82468975 -0.023533376 0.011643383 0.023118211 0.047248706
-0.021390902 -0.090063035 0.068982705 0.07024714 1.2142671 -1.1337576 2.087437 -1.8920836
-0.12135925 0.043354943 -0.021148194 0.0115373945 0.021222807 -0.06284103 0.02947038 0.03915181
0.06684158 -0.13450451 -1.77523 -1.2700856 1.6390518 -1.005972 1.0621477 0.78709984
0.018190166 -0.00912499 0.047457907 0.0048434576 0.0027050595 0.122980855 0.071467586 -0.15797706
2.0869582 0.607582 -0.688534 -0.31979522 0.5428435 -2.0621977 0.042989034 -0.03784305
-0.08286902 -0.060098328 0.053878006 -0.040546462 0.05540063 0.0139421495 1.4942843 2.1111
-0.04635961 -1.1636343 -0.36169723 -1.4726168 0.040333956 -0.03888872 0.018863844 -0.002656851
0.00056935026 -0.036085848 -0.009101948 -0.007164577 1.8055992 0.4074409 -0.46987003 0.84665596
-1.4235016 -1.8373259 -0.052659865 0.056396883 -0.04101278 -0.002180569 0.011402161 -0.05991395
-0.0024901817 0.00467412 1.0960507 -3.3013659 0.63188 1.2502725 0.08818164 -0.62942463
0.03335619 0.01392175 -0.0019100771 -0.06469096 -0.051482692 0.007529015 -0.017660977 -0.025598662
0.15110376 -0.7585305 -1.3873842 -0.057655986 3.3747537 -0.69383353 -0.034177944 -0.047804736
-0.0017836574 -0.021833584 -0.035713017 -0.007424613 0.031504862 -0.0064554494 -0.38293114 -0.09150398
1.4204395 0.9593278 -2.3535616 1.0609347 0.021452812 0.022851093 -0.021768242 0.04800594
0.03347646 0.0680447 0.01967947 0.059539814 0.383774 1.3942459 1.5263455 -1.0812415
00000000: 8cd1 28bf 9b31 803d 4914 553f 970a 0740
00000010: 2f91 abbf 9371 d5bf 7f3d 56ba 240c 46bc
00000020: f1c8 05bd 6b23 323d 6ba0 c7bb d72a 2c3d
00000030: 7e6c 2bbd d455 f03c 2464 e2bf 7078 3a3e
00000040: 1027 cfbe e169 8dbf e6db 933f 1ea8 0f40
00000050: 5e10 adbb 6a64 c4bc e7a0 d83d ca4d 42bb
00000060: 2204 f9bb 723b d43b 2d58 2dbc b021 34bd
00000070: d9ad a83f 92cd 00c0 a934 83bf 3b8f 763e
00000080: 770f 543f fe82 ea3f c112 e63b d358 2bbc
00000090: 701b 8ebd 95dc 063d d0a0 623d 7643 0d3d
000000a0: dceb 6ebd 21cd 733b 7c4d 8abe 8917 6fbf
000000b0: 4d61 a93d 22a2 80bf 3dab 64bf da45 5040
000000c0: a9e8 f8bb a486 c13a 3494 f33b f235 a4bc
000000d0: dfe4 103d cd5a cc3d 96cb 883d 1177 87bd
000000e0: ddda cabe ca5e 6fbe 12d1 8fbe 3b71 84be
000000f0: cb8e 27be 4052 60be 0b63 e2be 455a 98be
00000100: 8f92 3d3a dfc1 853b a3a3 5dbe a940 2fbe
00000110: 3f63 92be a952 4ebe fcc8 c33f 5a42 153f
00000120: 6d4f 47c0 3e85 35ba bcd7 803e 3e12 433f
00000130: 2902 2e3c afb6 fd3c 780e 52bd cc4c fe3b
00000140: 79ea 28bd 7f10 b43d dd10 51bd 1ae2 a5bd
00000150: 29fd 79be a55e c73e 69d3 f33f 0c46 94bf
00000160: 2d87 05c0 586e 233f ff16 58bd b467 9a3d
00000170: 6b8d c33d 265c 1cbd 2e28 b83d 8f61 7f3c
00000180: 1051 aa3c fd49 1dbd 6094 76bf 36b3 0a3e
00000190: c6e7 68be 55d8 1940 a897 08bf 138a e9be
000001a0: 66f9 74be 620c f13d 9df0 84bc 2752 3a3e
000001b0: 35bb f23c c580 2fbe 52d1 39bd 4c6f ce3d
000001c0: 5656 3d40 0847 bfbf 0596 afbf 3148 163e
000001d0: 31d6 883e 91d5 1c3e e3b4 383c b0d2 fabb
000001e0: f89f 8fbd 194f 923d ddb9 853c a6e8 123d
000001f0: af32 9cbd cfa1 a3bd 9d6b 19bf 0823 78bf
00000200: 816c e23f e891 b53f a9fe b0bf de1e 53bf
00000210: 11c9 c0bc e3c3 3e3c 6762 bd3c dc87 413d
00000220: f93b afbc f872 b8bd ce46 8d3d bcdd 8f3d
00000230: 1b6d 9b3f f81e 91bf 9198 0540 cc2f f2bf
00000240: 338b f8bd f494 313d fa3e adbc 5707 3d3c
00000250: 74db ad3c ccb2 80bd de6b f13c a65d 203d
00000260: 3de4 883d 8dbb 09be bd3a e3bf 2a92 a2bf
00000270: 73cc d13f b1c3 80bf 75f4 873f 607f 493f
00000280: 8b03 953c fb80 15bc 3963 423d deb5 9e3b
00000290: 5e47 313b 63dd fb3d 995d 923d bdc4 21be
000002a0: b990 0540 7e8a 1b3f c443 30bf 33bc a3be
000002b0: cbf7 0a3f 0cfb 03c0 4515 303d 5001 1bbd
000002c0: 3cb7 a9bd aa29 76bd 2faf 5c3d 0c14 26bd
000002d0: c5eb 623d 9d6d 643c b544 bf3f 431c 0740
000002e0: 93e3 3dbd f8f1 94bf 6130 b9be b57e bcbf
000002f0: 3835 253d c749 1fbd 5988 9a3c 901e 2ebb
00000300: 7340 153a c1ce 13bd 5620 15bc d4c4 eabb
00000310: e01d e73f 189c d03e ce92 f0be 72be 583f
00000320: 4d35 b6bf 7f2d ebbf dfb1 57bd 6b00 673d
00000330: 04fd 27bd e1e7 0ebb 21d0 3a3c 5468 75bd
00000340: 5132 23bb 5c29 993b 644b 8c3f 9449 53c0
00000350: e3c2 213f ee08 a03f 9398 b43d f921 21bf
00000360: 80a0 083d 0d18 643c 8d5b faba b27c 84bd
00000370: 84df 52bd f5b5 f63b c1ad 90bc 49b4 d1bc
00000380: f2ba 1a3e 0e2f 42bf ce95 b1bf af28 6cbd
00000390: f7fb 5740 139f 31bf 2cfe 0bbd e6ce 43bd
000003a0: 9cc9 e9ba 58dc b2bc d047 12bd 2b4a f3bb
000003b0: 3e0b 013d 3c88 d3bb 8d0f c4be 7066 bbbd
000003c0: f6d0 b53f 8296 753f c1a0 16c0 b5cc 873f
000003d0: cfbd af3c 3732 bb3c 5053 b2bc e0a1 443d
000003e0: 9d1e 093d 055b 8b3d d736 a13c 05e0 733d
000003f0: 077e c43e a676 b23f 4a5f c33f 1f66 8abf

bias f4 [57]
-0.2736703 -0.043364745 0.17987913 -0.3375425 -0.004201166 0.29889375 -0.24081023 0.11446296
0.055401262 0.094460465 0.09088205 -0.012540465 0.040168025 0.014630123 0.12690653 -0.028317148
0.0120136 0.24907432 0.26989025 -0.24943106 0.28494683 -0.088452086 -0.16309318 -0.3081765
-0.24501836 0.20040533 0.21397826 0.17441565 0.19012985 -0.025847076 -0.007841454 0.03165122
-0.111351684 -0.1383533 -0.24350788 -0.11952834 -0.27415073 0.04002809 0.22602215 0.0050351103
-0.13037907 -0.15603215 -0.1700167 -0.1308689 0.20925812 0.18049896 -0.045324765 -0.19651963
-0.05425702 0.034354497 0.17316113 0.19587342 0.0029347339 -0.057935778 0.05276985 -0.09719353
-0.21553272
00000000: 831e 8cbe 3b9f 31bd 3c32 383e 5fd2 acbe
00000010: efa9 89bb 9a08 993e f596 76be 8e6b ea3d
00000020: 6fec 623d 7d74 c13d 5e20 ba3d 8676 4dbc
00000030: 3a87 243d 2fb3 6f3c c9f3 013e 5df9 e7bc
00000040: b1d4 443c 570d 7f3e 0e2f 8a3e db6a 7fbe
00000050: 8de4 913e 5e26 b5bd e601 27be 4fc9 9dbe
00000060: 18e6 7abe 0e37 4d3e 1e1d 5b3e 049a 323e
00000070: 66b1 423e 3fbd d3bc 7179 00bc b6a4 013d
00000080: 5a0c e4bd 7dac 0dbe 215a 79be 46cb f4bd
00000090: 7c5d 8cbe 7ff4 233d 5a72 673e 91fd a43b
000000a0: 1782 05be e4c6 1fbe dc18 2ebe 7f02 06be
000000b0: c347 563e b8d4 383e 76a6 39bd 713c 49be
000000c0: 9c3c 5ebd 4db7 0c3d 2751 313e 0b93 483e
000000d0: aa54 403b 114e 6dbd 3325 583d 670d c7bd
000000e0: 9cb4 5cbe

weight f4 [6, 57]
-0.15286756 -1.0272708 0.5626172 -0.1401455 -0.036089733 1.0024022 0.09171813 -0.23888116
1.1878418 -0.1012562 0.6935347 -0.5627364 0.94041884 0.7430466 0.8913322 0.6009803
0.010340855 -0.12218371 0.24523318 -0.4079508 -0.049984645 0.14034143 -0.04746878 0.22261547
0.16581997 0.16864061 -0.7345238 -0.5767419 -0.8180266 -0.14943886 0.11656185 1.0597509
-0.75138956 0.26764846 -0.17235015 0.29977617 -0.433928 -0.3886234 -0.58809984 -0.37253335
-0.9093751 0.95981205 0.06873735 0.43198314 -0.29290062 -1.38201 0.3040075 0.70039225
1.5276173 0.08881268 -0.02064697 -1.1755139 1.3139479 -0.4841579 -0.6618301 0.36714622
0.40490863 0.19348131 0.030398915 -1.0155149 -0.59005284 -0.025055015 0.5746728 0.28710762
-0.02250275 -0.5626204 -0.3501869 -0.45863938 -0.3785282 0.36522698 1.2638674 0.42302385
-1.4953743 -0.4977638 -0.025523094 0.8145678 0.11083573 1.3946704 0.14413784 0.35452637
0.17670427 0.9391997 -1.0330479 -0.5163029 -0.5139072 0.6382291 0.51173985 -0.59213233
-0.39387473 0.63335747 0.10045977 1.2680699 -0.64415145 1.2988671 -0.34661347 0.10572187
1.2573318 -0.7665399 -1.0222774 0.5048636 0.17937669 -0.5391866 0.5676295 -0.06201829
0.35101396 -0.080350064 -0.94732845 -0.08683987 0.83205885 -0.3463498 0.64132595 -0.46044743
0.22573544 0.008849364 0.49072295 -0.105709724 -0.41120598 0.0021958754 0.16507271 -1.8265749
0.90887856 -0.08807926 -0.57715464 0.8082308 1.1797523 0.83149266 -0.19951083 0.060425747
-0.16341577 0.3954993 -0.80531 0.52739227 0.8615823 -0.08744026 0.11092674 -0.34119868
-0.20378229 -0.110275485 -0.5380278 0.39399147 -0.22924614 0.38827235 0.7994659 -0.5995576
-0.06212618 0.20354302 -0.8273198 0.6218443 -0.93966275 1.1178849 -0.20659137 1.0640515
0.56658906 1.3021697 0.6444994 0.58709353 -0.5620182 -0.2644003 0.32724494 0.06477994
-0.04192548 0.34316725 -0.64723086 -0.40337944 -1.3169311 -0.24995463 0.033655763 1.2132696
0.38527545 -0.26711562 0.17189251 1.0369244 -0.667313 0.023599878 -0.6457659 -0.095881864
0.11780905 -0.41030627 0.61350554 0.014990625 0.5643795 -1.1191515 -0.29240966 0.012410527
-0.5838555 0.4343175 0.57589746 -0.09910836 0.2652426 -0.40836042 0.48045123 -0.4881257
0.43867743 -0.49904922 -0.14904204 -0.57363003 -0.42866227 0.35238305 1.0297667 0.74818635
0.44341034 0.91407603 -0.37232047 0.9843943 0.15184632 0.040494055 0.098426126 -0.033667617
-0.7224321 -0.14793001 -0.63163716 0.34819037 0.19825044 -0.96319693 0.31743258 1.5074131
0.15421705 -1.1389217 -0.84431934 -0.307652 1.2441843 0.7665769 0.74163735 -0.64557105
-1.0942423 -0.46145803 1.1076035 -1.0980811 -0.5960341 0.7458023 0.34849554 -0.39865166
0.1589607 0.4151855 -0.91017187 -0.16207646 0.14248544 -0.595711 -0.16889383 0.46225348
0.32636935 -0.14802551 -0.6196461 0.12225282 2.056515 -1.2232449 0.014435848 -0.5165727
0.5083232 -0.15144186 -0.54829466 0.07511981 -0.5631649 1.0140007 0.8223463 0.76445615
00000000: 5089 1cbe 9c7d 83bf ae07 103f 4d82 0fbe
00000010: d4d2 13bd b74e 803f b7d6 bb3d 439d 74be
00000020: 330b 983f 695f cfbd 7d8b 313f 7e0f 10bf
00000030: 4abf 703f 4d38 3e3f 592e 643f d8d9 193f
00000040: b16c 293c 743b fabd 681e 7b3e edde d0be
00000050: b3bc 4cbd aab5 0f3e a06e 42bd 4ff5 633e
00000060: b6cc 293e 20b0 2c3e c009 3cbf 5ba5 13bf
00000070: 316a 51bf 8006 19be fbb7 ee3d eba5 873f
00000080: 115b 40bf 3809 893e 8f7c 30be 437c 993e
00000090: d02b debe a5f9 c6be b68d 16bf b1bc bebe
000000a0: cecc 68bf 3eb6 753f 2bc6 8c3d e52c dd3e
000000b0: 12f7 95be b4e5 b0bf dfa6 9b3e e84c 333f
000000c0: f788 c33f 6ce3 b53d d623 a9bc 3d77 96bf
000000d0: 722f a83f 8be3 f7be b36d 29bf 97fa bb3e
000000e0: 2f50 cf3e f71f 463e 2507 f93c 64fc 81bf
000000f0: b40d 17bf 2d40 cdbc c21d 133f c5ff 923e
00000100: b057 b8bc e407 10bf b34b b3be c8d2 eabe
00000110: 73ce c1be 08ff ba3e 68c6 a13f 9596 d83e
00000120: 6d68 bfbf e6da febe cf15 d1bc 8487 503f
00000130: d8fd e23d 8f84 b23f df98 133e 7b84 b53e
00000140: f7f1 343e 646f 703f ea3a 84bf 6d2c 04bf
00000150: 6c8f 03bf fb62 233f 6201 033f fc95 17bf
00000160: f3a9 c9be b723 223f dabd cd3d 1d50 a23f
00000170: 1ce7 24bf 4741 a63f 5277 b1be b584 d83d
00000180: 40f0 a03f f53b 44bf fcd9 82bf be3e 013f
00000190: 86ae 373e 2208 0abf 2b50 113f e406 7ebd
000001a0: 1ab8 b33e 938e a4bd 1e84 72bf 1ad9 b1bd
000001b0: cf01 553f c354 b1be f02d 243f c4bf ebbe
000001c0: 3127 673e ecfc 103c 0a40 fb3e 577e d8bd
000001d0: 9789 d2be ade8 0f3b d208 293e 35cd e9bf
000001e0: 44ac 683f e662 b4bd 68c0 13bf 37e8 4e3f
000001f0: 2002 973f b4dc 543f 914c 4cbe fd80 773d
00000200: 7756 27be e27e ca3e cc28 4ebf 2e03 073f
00000210: a890 5c3f e113 b3bd 8f2d e33d 98b1 aebe
00000220: 4eac 50be 1dd8 e1bd 31bc 09bf 40b9 c93e
00000230: 80bf 6abe a2cb c63e cca9 4c3f 9b7c 19bf
00000240: 0578 7ebd 956d 503e 3bcb 53bf 3031 1f3f
00000250: bd8d 70bf da16 8f3f b08c 53be d732 883f
00000260: fb0b 113f 7fad a63f eafd 243f c34b 163f
00000270: 6de0 0fbf 7a5f 87be a68c a73e 58ab 843d
00000280: 0dba 2bbd 9eb3 af3e ecb0 25bf c087 cebe
00000290: 3391 a8bf 1bf4 7fbe a0da 093d 6b4c 9b3f
000002a0: d342 c53e 61c3 88be 9704 303e f0b9 843f
000002b0: 06d5 2abf 8854 c13c ea50 25bf b65d c4bd
000002c0: df45 f13d aa13 d2be b30e 1d3f 3d9b 753c
000002d0: 2d7b 103f 5b40 8fbf b8b6 95be 8655 4b3c
000002e0: 8e77 15bf dd5e de3e 046e 133f 53f9 cabd
000002f0: e1cd 873e 9e14 d1be b4fd f53e 9deb f9be
00000300: 549a e03e 6183 ffbe 7a9e 18be 6bd9 12bf
00000310: 9f79 dbbe 8d6b b43e 65cf 833f 2489 3f3f
00000320: ae06 e33e e300 6a3f caa0 bebe 4401 7c3f
00000330: 9a7d 1b3e 18dd 253d a393 c93d 0ee7 09bd
00000340: 4ff1 38bf f77a 17be f9b2 21bf 0246 b23e
00000350: 2a02 4b3e 1394 76bf 8686 a23e eaf2 c03f
00000360: 13eb 1d3e 30c8 91bf 5025 58bf 9084 9dbe
00000370: 6e41 9f3f 623e 443f f2db 3d3f 2544 25bf
00000380: 2210 8cbf 3a44 ecbe f4c5 8d3f ec8d 8cbf
00000390: b195 18bf e6ec 3e3f 026e b23e 121c ccbe
000003a0: 98c6 223e 3293 d43e 0601 69bf 5ff7 25be
000003b0: b4e7 113e 8480 18bf 81f2 2cbe 7dac ec3e
000003c0: e219 a73e 0094 17be 20a1 1ebf b05f fa3d
000003d0: f19d 0340 4a93 9cbf 5684 6c3c 1c3e 04bf
000003e0: 7821 023f 9313 1bbe 0a5d 0cbf 6ad8 993d
000003f0: 932b 10bf c6ca 813f 4a85 523f 66b3 433f

bias f4 [6]
0.14519626 0.11906278 0.062068667 -0.08012094 -0.030467156 -0.06538823
00000000: 54ae 143e 30d7 f33d b73b 7e3d 7316 a4bd
00000010: 4296 f9bc 44ea 85bd
